…
Minimising 3 multiobjective functions on Domain: CartProd(N=2,d=18)::[Integral: [[1, 3], [1, 3], [1, 3], [1, 3], [1, 3], [1, 6]], ProdDiscNum(d=12,size=79361856)].

[<function error at 0x7f7f49045620>, <function energy at 0x7f7f49045510>, <function latency at 0x7f7f49045598>]
Multi-objective Optimisation with rand using capital 300.0 (return_value)
Model: "functional_1"
_________________________________________________________________
Layer (type)                 Output Shape              Param #   
=================================================================
input_1 (InputLayer)         [(None, 32, 32, 3)]       0         
_________________________________________________________________
conv2d (Conv2D)              (None, 32, 32, 24)        1824      
_________________________________________________________________
activation (Activation)      (None, 32, 32, 24)        0         
_________________________________________________________________
batch_normalization (BatchNo (None, 32, 32, 24)        96        
_________________________________________________________________
conv2d_1 (Conv2D)            (None, 32, 32, 36)        21636     
_________________________________________________________________
activation_1 (Activation)    (None, 32, 32, 36)        0         
_________________________________________________________________
batch_normalization_1 (Batch (None, 32, 32, 36)        144       
_________________________________________________________________
max_pooling2d (MaxPooling2D) (None, 16, 16, 36)        0         
_________________________________________________________________
conv2d_2 (Conv2D)            (None, 16, 16, 64)        112960    
_________________________________________________________________
activation_2 (Activation)    (None, 16, 16, 64)        0         
_________________________________________________________________
batch_normalization_2 (Batch (None, 16, 16, 64)        256       
_________________________________________________________________
max_pooling2d_1 (MaxPooling2 (None, 8, 8, 64)          0         
_________________________________________________________________
conv2d_3 (Conv2D)            (None, 8, 8, 96)          301152    
_________________________________________________________________
activation_3 (Activation)    (None, 8, 8, 96)          0         
_________________________________________________________________
batch_normalization_3 (Batch (None, 8, 8, 96)          384       
_________________________________________________________________
max_pooling2d_2 (MaxPooling2 (None, 4, 4, 96)          0         
_________________________________________________________________
conv2d_4 (Conv2D)            (None, 4, 4, 64)          153664    
_________________________________________________________________
activation_4 (Activation)    (None, 4, 4, 64)          0         
_________________________________________________________________
batch_normalization_4 (Batch (None, 4, 4, 64)          256       
_________________________________________________________________
conv2d_5 (Conv2D)            (None, 4, 4, 64)          102464    
_________________________________________________________________
activation_5 (Activation)    (None, 4, 4, 64)          0         
_________________________________________________________________
batch_normalization_5 (Batch (None, 4, 4, 64)          256       
_________________________________________________________________
max_pooling2d_3 (MaxPooling2 (None, 2, 2, 64)          0         
_________________________________________________________________
flatten (Flatten)            (None, 256)               0         
_________________________________________________________________
dense (Dense)                (None, 256)               65792     
_________________________________________________________________
activation_6 (Activation)    (None, 256)               0         
_________________________________________________________________
dense_1 (Dense)              (None, 256)               65792     
_________________________________________________________________
activation_7 (Activation)    (None, 256)               0         
_________________________________________________________________
dense_2 (Dense)              (None, 10)                2570      
_________________________________________________________________
activation_8 (Activation)    (None, 10)                0         
=================================================================
Total params: 829,246
Trainable params: 828,550
Non-trainable params: 696
_________________________________________________________________
Epoch 1/10
1562/1562 - 14s - loss: 1.4690 - accuracy: 0.4666 - val_loss: 1.2919 - val_accuracy: 0.5472
Epoch 2/10
1562/1562 - 14s - loss: 1.0476 - accuracy: 0.6298 - val_loss: 1.2140 - val_accuracy: 0.5989
…
[array([[53.734486]], dtype=float32), array([[58.25107]], dtype=float32), array([[58.26536]], dtype=float32), array([[179.90976]], dtype=float32), 401.408]
New Contested Point and Value: 
[array([1, 1, 1, 1, 2, 1]), [24.0, 5.0, 36.0, 5.0, 64.0, 7.0, 96.0, 7.0, 64.0, 5.0, 256.0, 256.0]] [-18.779999017715454, -334.12481689453125, -58.251068115234375]
Model: "functional_1"
_________________________________________________________________
Layer (type)                 Output Shape              Param #   
=================================================================
input_1 (InputLayer)         [(None, 32, 32, 3)]       0         
_________________________________________________________________
conv2d (Conv2D)              (None, 32, 32, 64)        9472      
_________________________________________________________________
activation (Activation)      (None, 32, 32, 64)        0         
_________________________________________________________________
batch_normalization (BatchNo (None, 32, 32, 64)        256       
_________________________________________________________________
conv2d_1 (Conv2D)            (None, 32, 32, 64)        200768    
_________________________________________________________________
activation_1 (Activation)    (None, 32, 32, 64)        0         
_________________________________________________________________
batch_normalization_1 (Batch (None, 32, 32, 64)        256       
_________________________________________________________________
max_pooling2d (MaxPooling2D) (None, 16, 16, 64)        0         
_________________________________________________________________
conv2d_2 (Conv2D)            (None, 16, 16, 24)        38424     
_________________________________________________________________
activation_2 (Activation)    (None, 16, 16, 24)        0         
_________________________________________________________________
batch_normalization_2 (Batch (None, 16, 16, 24)        96        
_________________________________________________________________
max_pooling2d_1 (MaxPooling2 (None, 8, 8, 24)          0         
_________________________________________________________________
conv2d_3 (Conv2D)            (None, 8, 8, 24)          14424     
_________________________________________________________________
activation_3 (Activation)    (None, 8, 8, 24)          0         
_________________________________________________________________
batch_normalization_3 (Batch (None, 8, 8, 24)          96        
_________________________________________________________________
conv2d_4 (Conv2D)            (None, 8, 8, 24)          14424     
_________________________________________________________________
activation_4 (Activation)    (None, 8, 8, 24)          0         
_________________________________________________________________
batch_normalization_4 (Batch (None, 8, 8, 24)          96        
_________________________________________________________________
conv2d_5 (Conv2D)            (None, 8, 8, 36)          21636     
_________________________________________________________________
activation_5 (Activation)    (None, 8, 8, 36)          0         
_________________________________________________________________
batch_normalization_5 (Batch (None, 8, 8, 36)          144       
_________________________________________________________________
max_pooling2d_2 (MaxPooling2 (None, 4, 4, 36)          0         
_________________________________________________________________
conv2d_6 (Conv2D)            (None, 4, 4, 64)          112960    
_________________________________________________________________
activation_6 (Activation)    (None, 4, 4, 64)          0         
_________________________________________________________________
batch_normalization_6 (Batch (None, 4, 4, 64)          256       
_________________________________________________________________
conv2d_7 (Conv2D)            (None, 4, 4, 64)          200768    
_________________________________________________________________
activation_7 (Activation)    (None, 4, 4, 64)          0         
_________________________________________________________________
batch_normalization_7 (Batch (None, 4, 4, 64)          256       
_________________________________________________________________
max_pooling2d_3 (MaxPooling2 (None, 2, 2, 64)          0         
_________________________________________________________________
flatten (Flatten)            (None, 256)               0         
_________________________________________________________________
dense (Dense)                (None, 8192)              2105344   
_________________________________________________________________
activation_8 (Activation)    (None, 8192)              0         
_________________________________________________________________
dense_1 (Dense)              (None, 2048)              16779264  
_________________________________________________________________
activation_9 (Activation)    (None, 2048)              0         
_________________________________________________________________
dense_2 (Dense)              (None, 10)                20490     
_________________________________________________________________
activation_10 (Activation)   (None, 10)                0         
=================================================================
Total params: 19,519,430
Trainable params: 19,518,702
Non-trainable params: 728
_________________________________________________________________
Epoch 1/10
1562/1562 - 17s - loss: 1.5324 - accuracy: 0.4421 - val_loss: 1.4060 - val_accuracy: 0.5071
Epoch 2/10
1562/1562 - 16s - loss: 1.1748 - accuracy: 0.5799 - val_loss: 1.1572 - val_accuracy: 0.6097
…
[array([[77.19376]], dtype=float32), array([[96.29849]], dtype=float32), array([[148.45609]], dtype=float32), array([[188.1672]], dtype=float32), array([[343.71567]], dtype=float32), 401.408]
New Contested Point and Value: 
[array([2, 1, 2, 1, 2, 3]), [64.0, 7.0, 24.0, 5.0, 24.0, 5.0, 36.0, 5.0, 64.0, 7.0, 8192.0, 2048.0]] [-22.380000352859497, -471.85650634765625, -77.19376373291016]
Model: "functional_1"
_________________________________________________________________
Layer (type)                 Output Shape              Param #   
=================================================================
input_1 (InputLayer)         [(None, 32, 32, 3)]       0         
_________________________________________________________________
conv2d (Conv2D)              (None, 32, 32, 24)        3552      
_________________________________________________________________
activation (Activation)      (None, 32, 32, 24)        0         
_________________________________________________________________
batch_normalization (BatchNo (None, 32, 32, 24)        96        
_________________________________________________________________
max_pooling2d (MaxPooling2D) (None, 16, 16, 24)        0         
_________________________________________________________________
conv2d_1 (Conv2D)            (None, 16, 16, 256)       55552     
_________________________________________________________________
activation_1 (Activation)    (None, 16, 16, 256)       0         
_________________________________________________________________
batch_normalization_1 (Batch (None, 16, 16, 256)       1024      
_________________________________________________________________
conv2d_2 (Conv2D)            (None, 16, 16, 64)        802880    
_________________________________________________________________
activation_2 (Activation)    (None, 16, 16, 64)        0         
_________________________________________________________________
batch_normalization_2 (Batch (None, 16, 16, 64)        256       
_________________________________________________________________
max_pooling2d_1 (MaxPooling2 (None, 8, 8, 64)          0         
_________________________________________________________________
conv2d_3 (Conv2D)            (None, 8, 8, 256)         803072    
_________________________________________________________________
activation_3 (Activation)    (None, 8, 8, 256)         0         
_________________________________________________________________
batch_normalization_3 (Batch (None, 8, 8, 256)         1024      
_________________________________________________________________
conv2d_4 (Conv2D)            (None, 8, 8, 256)         3211520   
_________________________________________________________________
activation_4 (Activation)    (None, 8, 8, 256)         0         
_________________________________________________________________
batch_normalization_4 (Batch (None, 8, 8, 256)         1024      
_________________________________________________________________
max_pooling2d_2 (MaxPooling2 (None, 4, 4, 256)         0         
_________________________________________________________________
conv2d_5 (Conv2D)            (None, 4, 4, 256)         3211520   
_________________________________________________________________
activation_5 (Activation)    (None, 4, 4, 256)         0         
_________________________________________________________________
batch_normalization_5 (Batch (None, 4, 4, 256)         1024      
_________________________________________________________________
max_pooling2d_3 (MaxPooling2 (None, 2, 2, 256)         0         
_________________________________________________________________
flatten (Flatten)            (None, 1024)              0         
_________________________________________________________________
dense (Dense)                (None, 512)               524800    
_________________________________________________________________
activation_6 (Activation)    (None, 512)               0         
_________________________________________________________________
dense_1 (Dense)              (None, 2048)              1050624   
_________________________________________________________________
activation_7 (Activation)    (None, 2048)              0         
_________________________________________________________________
dense_2 (Dense)              (None, 10)                20490     
_________________________________________________________________
activation_8 (Activation)    (None, 10)                0         
=================================================================
Total params: 9,688,458
Trainable params: 9,686,234
Non-trainable params: 2,224
_________________________________________________________________
Epoch 1/10
1562/1562 - 26s - loss: 1.7061 - accuracy: 0.3826 - val_loss: 1.9887 - val_accuracy: 0.3693
Epoch 2/10
1562/1562 - 25s - loss: 1.2596 - accuracy: 0.5513 - val_loss: 1.1742 - val_accuracy: 0.5803
…
[array([[79.728905]], dtype=float32), array([[90.201904]], dtype=float32), array([[109.306625]], dtype=float32), 401.408]
New Contested Point and Value: 
[array([1, 1, 1, 2, 1, 2]), [24.0, 7.0, 256.0, 3.0, 64.0, 7.0, 256.0, 7.0, 256.0, 7.0, 512.0, 2048.0]] [-23.009997606277466, -568.3553466796875, -90.201904296875]
Model: "functional_1"
_________________________________________________________________
Layer (type)                 Output Shape              Param #   
=================================================================
input_1 (InputLayer)         [(None, 32, 32, 3)]       0         
_________________________________________________________________
conv2d (Conv2D)              (None, 32, 32, 256)       19456     
_________________________________________________________________
activation (Activation)      (None, 32, 32, 256)       0         
_________________________________________________________________
batch_normalization (BatchNo (None, 32, 32, 256)       1024      
_________________________________________________________________
conv2d_1 (Conv2D)            (None, 32, 32, 256)       590080    
_________________________________________________________________
activation_1 (Activation)    (None, 32, 32, 256)       0         
_________________________________________________________________
batch_normalization_1 (Batch (None, 32, 32, 256)       1024      
_________________________________________________________________
conv2d_2 (Conv2D)            (None, 32, 32, 256)       590080    
_________________________________________________________________
activation_2 (Activation)    (None, 32, 32, 256)       0         
_________________________________________________________________
batch_normalization_2 (Batch (None, 32, 32, 256)       1024      
_________________________________________________________________
max_pooling2d (MaxPooling2D) (None, 16, 16, 256)       0         
_________________________________________________________________
conv2d_3 (Conv2D)            (None, 16, 16, 64)        147520    
_________________________________________________________________
activation_3 (Activation)    (None, 16, 16, 64)        0         
_________________________________________________________________
batch_normalization_3 (Batch (None, 16, 16, 64)        256       
_________________________________________________________________
conv2d_4 (Conv2D)            (None, 16, 16, 64)        36928     
_________________________________________________________________
activation_4 (Activation)    (None, 16, 16, 64)        0         
_________________________________________________________________
batch_normalization_4 (Batch (None, 16, 16, 64)        256       
_________________________________________________________________
max_pooling2d_1 (MaxPooling2 (None, 8, 8, 64)          0         
_________________________________________________________________
conv2d_5 (Conv2D)            (None, 8, 8, 256)         409856    
_________________________________________________________________
activation_5 (Activation)    (None, 8, 8, 256)         0         
_________________________________________________________________
batch_normalization_5 (Batch (None, 8, 8, 256)         1024      
_________________________________________________________________
conv2d_6 (Conv2D)            (None, 8, 8, 256)         1638656   
_________________________________________________________________
activation_6 (Activation)    (None, 8, 8, 256)         0         
_________________________________________________________________
batch_normalization_6 (Batch (None, 8, 8, 256)         1024      
_________________________________________________________________
max_pooling2d_2 (MaxPooling2 (None, 4, 4, 256)         0         
_________________________________________________________________
conv2d_7 (Conv2D)            (None, 4, 4, 64)          147520    
_________________________________________________________________
activation_7 (Activation)    (None, 4, 4, 64)          0         
_________________________________________________________________
batch_normalization_7 (Batch (None, 4, 4, 64)          256       
_________________________________________________________________
max_pooling2d_3 (MaxPooling2 (None, 2, 2, 64)          0         
_________________________________________________________________
flatten (Flatten)            (None, 256)               0         
_________________________________________________________________
dense (Dense)                (None, 4096)              1052672   
_________________________________________________________________
activation_8 (Activation)    (None, 4096)              0         
_________________________________________________________________
dense_1 (Dense)              (None, 256)               1048832   
_________________________________________________________________
activation_9 (Activation)    (None, 256)               0         
_________________________________________________________________
dense_2 (Dense)              (None, 10)                2570      
_________________________________________________________________
activation_10 (Activation)   (None, 10)                0         
=================================================================
Total params: 5,690,058
Trainable params: 5,687,114
Non-trainable params: 2,944
_________________________________________________________________
Epoch 1/10
WARNING:tensorflow:Callbacks method `on_train_batch_end` is slow compared to the batch time (batch time: 0.0093s vs `on_train_batch_end` time: 0.0145s). Check your callbacks.
…
[array([[172.0396]], dtype=float32), array([[172.05388]], dtype=float32), array([[208.36868]], dtype=float32), array([[287.16858]], dtype=float32), 401.408]
New Contested Point and Value: 
[array([1, 2, 2, 2, 1, 1]), [256.0, 5.0, 256.0, 3.0, 64.0, 3.0, 256.0, 5.0, 64.0, 3.0, 4096.0, 256.0]] [-15.850001573562622, -1302.809326171875, -172.0395965576172]
Model: "functional_1"
_________________________________________________________________
Layer (type)                 Output Shape              Param #   
=================================================================
input_1 (InputLayer)         [(None, 32, 32, 3)]       0         
_________________________________________________________________
conv2d (Conv2D)              (None, 32, 32, 256)       7168      
_________________________________________________________________
activation (Activation)      (None, 32, 32, 256)       0         
_________________________________________________________________
batch_normalization (BatchNo (None, 32, 32, 256)       1024      
_________________________________________________________________
max_pooling2d (MaxPooling2D) (None, 16, 16, 256)       0         
_________________________________________________________________
conv2d_1 (Conv2D)            (None, 16, 16, 36)        451620    
_________________________________________________________________
activation_1 (Activation)    (None, 16, 16, 36)        0         
_________________________________________________________________
batch_normalization_1 (Batch (None, 16, 16, 36)        144       
_________________________________________________________________
conv2d_2 (Conv2D)            (None, 16, 16, 36)        63540     
_________________________________________________________________
activation_2 (Activation)    (None, 16, 16, 36)        0         
_________________________________________________________________
batch_normalization_2 (Batch (None, 16, 16, 36)        144       
_________________________________________________________________
conv2d_3 (Conv2D)            (None, 16, 16, 36)        63540     
_________________________________________________________________
activation_3 (Activation)    (None, 16, 16, 36)        0         
_________________________________________________________________
batch_normalization_3 (Batch (None, 16, 16, 36)        144       
_________________________________________________________________
conv2d_4 (Conv2D)            (None, 16, 16, 36)        63540     
_________________________________________________________________
activation_4 (Activation)    (None, 16, 16, 36)        0         
_________________________________________________________________
batch_normalization_4 (Batch (None, 16, 16, 36)        144       
_________________________________________________________________
max_pooling2d_1 (MaxPooling2 (None, 8, 8, 36)          0         
_________________________________________________________________
conv2d_5 (Conv2D)            (None, 8, 8, 24)          42360     
_________________________________________________________________
activation_5 (Activation)    (None, 8, 8, 24)          0         
_________________________________________________________________
batch_normalization_5 (Batch (None, 8, 8, 24)          96        
_________________________________________________________________
max_pooling2d_2 (MaxPooling2 (None, 4, 4, 24)          0         
_________________________________________________________________
conv2d_6 (Conv2D)            (None, 4, 4, 36)          7812      
_________________________________________________________________
activation_6 (Activation)    (None, 4, 4, 36)          0         
_________________________________________________________________
batch_normalization_6 (Batch (None, 4, 4, 36)          144       
_________________________________________________________________
max_pooling2d_3 (MaxPooling2 (None, 2, 2, 36)          0         
_________________________________________________________________
flatten (Flatten)            (None, 144)               0         
_________________________________________________________________
dense (Dense)                (None, 4096)              593920    
_________________________________________________________________
activation_7 (Activation)    (None, 4096)              0         
_________________________________________________________________
dense_1 (Dense)              (None, 2048)              8390656   
_________________________________________________________________
activation_8 (Activation)    (None, 2048)              0         
_________________________________________________________________
dense_2 (Dense)              (None, 10)                20490     
_________________________________________________________________
activation_9 (Activation)    (None, 10)                0         
=================================================================
Total params: 9,706,486
Trainable params: 9,705,566
Non-trainable params: 920
_________________________________________________________________
Epoch 1/10
1562/1562 - 16s - loss: 1.5001 - accuracy: 0.4516 - val_loss: 1.3308 - val_accuracy: 0.5394
Epoch 2/10
1562/1562 - 15s - loss: 1.1600 - accuracy: 0.5860 - val_loss: 1.1715 - val_accuracy: 0.5914
…
[array([[100.923]], dtype=float32), array([[120.027725]], dtype=float32), array([[128.59314]], dtype=float32), array([[148.98001]], dtype=float32), array([[268.9588]], dtype=float32), array([[373.94232]], dtype=float32), 401.408]
New Contested Point and Value: 
[array([1, 2, 2, 1, 1, 2]), [256.0, 3.0, 36.0, 7.0, 36.0, 7.0, 24.0, 7.0, 36.0, 3.0, 4096.0, 2048.0]] [-26.579999923706055, -658.3925170898438, -100.9229965209961]
Model: "functional_1"
_________________________________________________________________
Layer (type)                 Output Shape              Param #   
=================================================================
input_1 (InputLayer)         [(None, 32, 32, 3)]       0         
_________________________________________________________________
conv2d (Conv2D)              (None, 32, 32, 128)       18944     
_________________________________________________________________
activation (Activation)      (None, 32, 32, 128)       0         
_________________________________________________________________
batch_normalization (BatchNo (None, 32, 32, 128)       512       
_________________________________________________________________
conv2d_1 (Conv2D)            (None, 32, 32, 128)       802944    
_________________________________________________________________
activation_1 (Activation)    (None, 32, 32, 128)       0         
_________________________________________________________________
batch_normalization_1 (Batch (None, 32, 32, 128)       512       
_________________________________________________________________
max_pooling2d (MaxPooling2D) (None, 16, 16, 128)       0         
_________________________________________________________________
conv2d_2 (Conv2D)            (None, 16, 16, 128)       409728    
_________________________________________________________________
activation_2 (Activation)    (None, 16, 16, 128)       0         
_________________________________________________________________
batch_normalization_2 (Batch (None, 16, 16, 128)       512       
_________________________________________________________________
conv2d_3 (Conv2D)            (None, 16, 16, 24)        27672     
_________________________________________________________________
activation_3 (Activation)    (None, 16, 16, 24)        0         
_________________________________________________________________
batch_normalization_3 (Batch (None, 16, 16, 24)        96        
_________________________________________________________________
max_pooling2d_1 (MaxPooling2 (None, 8, 8, 24)          0         
_________________________________________________________________
conv2d_4 (Conv2D)            (None, 8, 8, 36)          42372     
_________________________________________________________________
activation_4 (Activation)    (None, 8, 8, 36)          0         
_________________________________________________________________
batch_normalization_4 (Batch (None, 8, 8, 36)          144       
_________________________________________________________________
conv2d_5 (Conv2D)            (None, 8, 8, 36)          63540     
_________________________________________________________________
activation_5 (Activation)    (None, 8, 8, 36)          0         
_________________________________________________________________
batch_normalization_5 (Batch (None, 8, 8, 36)          144       
_________________________________________________________________
max_pooling2d_2 (MaxPooling2 (None, 4, 4, 36)          0         
_________________________________________________________________
conv2d_6 (Conv2D)            (None, 4, 4, 96)          169440    
_________________________________________________________________
activation_6 (Activation)    (None, 4, 4, 96)          0         
_________________________________________________________________
batch_normalization_6 (Batch (None, 4, 4, 96)          384       
_________________________________________________________________
max_pooling2d_3 (MaxPooling2 (None, 2, 2, 96)          0         
_________________________________________________________________
flatten (Flatten)            (None, 384)               0         
_________________________________________________________________
dense (Dense)                (None, 8192)              3153920   
_________________________________________________________________
activation_7 (Activation)    (None, 8192)              0         
_________________________________________________________________
dense_1 (Dense)              (None, 2048)              16779264  
_________________________________________________________________
activation_8 (Activation)    (None, 2048)              0         
_________________________________________________________________
dense_2 (Dense)              (None, 10)                20490     
_________________________________________________________________
activation_9 (Activation)    (None, 10)                0         
=================================================================
Total params: 21,490,618
Trainable params: 21,489,466
Non-trainable params: 1,152
_________________________________________________________________
Epoch 1/10
WARNING:tensorflow:Callbacks method `on_train_batch_end` is slow compared to the batch time (batch time: 0.0069s vs `on_train_batch_end` time: 0.0119s). Check your callbacks.
…
[array([[85.54885]], dtype=float32), array([[104.65358]], dtype=float32), array([[156.81116]], dtype=float32), array([[263.28183]], dtype=float32), array([[357.12033]], dtype=float32), 401.408]
New Contested Point and Value: 
[array([2, 1, 1, 2, 1, 2]), [128.0, 7.0, 128.0, 5.0, 24.0, 3.0, 36.0, 7.0, 96.0, 7.0, 8192.0, 2048.0]] [-23.04999828338623, -564.2881469726562, -85.5488510131836]
Model: "functional_1"
_________________________________________________________________
Layer (type)                 Output Shape              Param #   
=================================================================
input_1 (InputLayer)         [(None, 32, 32, 3)]       0         
_________________________________________________________________
conv2d (Conv2D)              (None, 32, 32, 24)        3552      
_________________________________________________________________
activation (Activation)      (None, 32, 32, 24)        0         
_________________________________________________________________
batch_normalization (BatchNo (None, 32, 32, 24)        96        
_________________________________________________________________
conv2d_1 (Conv2D)            (None, 32, 32, 24)        28248     
_________________________________________________________________
activation_1 (Activation)    (None, 32, 32, 24)        0         
_________________________________________________________________
batch_normalization_1 (Batch (None, 32, 32, 24)        96        
_________________________________________________________________
max_pooling2d (MaxPooling2D) (None, 16, 16, 24)        0         
_________________________________________________________________
conv2d_2 (Conv2D)            (None, 16, 16, 96)        57696     
_________________________________________________________________
activation_2 (Activation)    (None, 16, 16, 96)        0         
_________________________________________________________________
batch_normalization_2 (Batch (None, 16, 16, 96)        384       
_________________________________________________________________
conv2d_3 (Conv2D)            (None, 16, 16, 96)        230496    
_________________________________________________________________
activation_3 (Activation)    (None, 16, 16, 96)        0         
_________________________________________________________________
batch_normalization_3 (Batch (None, 16, 16, 96)        384       
_________________________________________________________________
max_pooling2d_1 (MaxPooling2 (None, 8, 8, 96)          0         
_________________________________________________________________
conv2d_4 (Conv2D)            (None, 8, 8, 36)          31140     
_________________________________________________________________
activation_4 (Activation)    (None, 8, 8, 36)          0         
_________________________________________________________________
batch_normalization_4 (Batch (None, 8, 8, 36)          144       
_________________________________________________________________
max_pooling2d_2 (MaxPooling2 (None, 4, 4, 36)          0         
_________________________________________________________________
conv2d_5 (Conv2D)            (None, 4, 4, 64)          112960    
_________________________________________________________________
activation_5 (Activation)    (None, 4, 4, 64)          0         
_________________________________________________________________
batch_normalization_5 (Batch (None, 4, 4, 64)          256       
_________________________________________________________________
max_pooling2d_3 (MaxPooling2 (None, 2, 2, 64)          0         
_________________________________________________________________
conv2d_6 (Conv2D)            (None, 2, 2, 24)          13848     
_________________________________________________________________
activation_6 (Activation)    (None, 2, 2, 24)          0         
_________________________________________________________________
batch_normalization_6 (Batch (None, 2, 2, 24)          96        
_________________________________________________________________
conv2d_7 (Conv2D)            (None, 2, 2, 24)          5208      
_________________________________________________________________
activation_7 (Activation)    (None, 2, 2, 24)          0         
_________________________________________________________________
batch_normalization_7 (Batch (None, 2, 2, 24)          96        
_________________________________________________________________
flatten (Flatten)            (None, 96)                0         
_________________________________________________________________
dense (Dense)                (None, 512)               49664     
_________________________________________________________________
activation_8 (Activation)    (None, 512)               0         
_________________________________________________________________
dense_1 (Dense)              (None, 4096)              2101248   
_________________________________________________________________
activation_9 (Activation)    (None, 4096)              0         
_________________________________________________________________
dense_2 (Dense)              (None, 10)                40970     
_________________________________________________________________
activation_10 (Activation)   (None, 10)                0         
=================================================================
Total params: 2,676,582
Trainable params: 2,675,806
Non-trainable params: 776
_________________________________________________________________
Epoch 1/10
1562/1562 - 16s - loss: 1.5418 - accuracy: 0.4403 - val_loss: 1.6073 - val_accuracy: 0.4131
Epoch 2/10
1562/1562 - 16s - loss: 1.1189 - accuracy: 0.6016 - val_loss: 1.1012 - val_accuracy: 0.6137
…
[array([[65.41993]], dtype=float32), array([[73.76358]], dtype=float32), array([[103.69366]], dtype=float32), array([[103.69366]], dtype=float32), array([[114.68594]], dtype=float32), array([[178.2161]], dtype=float32), array([[339.19803]], dtype=float32), 401.408]
New Contested Point and Value: 
[array([2, 2, 1, 1, 2, 5]), [24.0, 7.0, 96.0, 5.0, 36.0, 3.0, 64.0, 7.0, 24.0, 3.0, 512.0, 4096.0]] [-19.999998807907104, -428.39892578125, -73.76358032226562]
Model: "functional_1"
_________________________________________________________________
Layer (type)                 Output Shape              Param #   
=================================================================
input_1 (InputLayer)         [(None, 32, 32, 3)]       0         
_________________________________________________________________
conv2d (Conv2D)              (None, 32, 32, 64)        9472      
_________________________________________________________________
activation (Activation)      (None, 32, 32, 64)        0         
_________________________________________________________________
batch_normalization (BatchNo (None, 32, 32, 64)        256       
_________________________________________________________________
conv2d_1 (Conv2D)            (None, 32, 32, 64)        200768    
_________________________________________________________________
activation_1 (Activation)    (None, 32, 32, 64)        0         
_________________________________________________________________
batch_normalization_1 (Batch (None, 32, 32, 64)        256       
_________________________________________________________________
max_pooling2d (MaxPooling2D) (None, 16, 16, 64)        0         
_________________________________________________________________
conv2d_2 (Conv2D)            (None, 16, 16, 24)        75288     
_________________________________________________________________
activation_2 (Activation)    (None, 16, 16, 24)        0         
_________________________________________________________________
batch_normalization_2 (Batch (None, 16, 16, 24)        96        
_________________________________________________________________
max_pooling2d_1 (MaxPooling2 (None, 8, 8, 24)          0         
_________________________________________________________________
conv2d_3 (Conv2D)            (None, 8, 8, 24)          14424     
_________________________________________________________________
activation_3 (Activation)    (None, 8, 8, 24)          0         
_________________________________________________________________
batch_normalization_3 (Batch (None, 8, 8, 24)          96        
_________________________________________________________________
conv2d_4 (Conv2D)            (None, 8, 8, 24)          5208      
_________________________________________________________________
activation_4 (Activation)    (None, 8, 8, 24)          0         
_________________________________________________________________
batch_normalization_4 (Batch (None, 8, 8, 24)          96        
_________________________________________________________________
conv2d_5 (Conv2D)            (None, 8, 8, 24)          5208      
_________________________________________________________________
activation_5 (Activation)    (None, 8, 8, 24)          0         
_________________________________________________________________
batch_normalization_5 (Batch (None, 8, 8, 24)          96        
_________________________________________________________________
max_pooling2d_2 (MaxPooling2 (None, 4, 4, 24)          0         
_________________________________________________________________
conv2d_6 (Conv2D)            (None, 4, 4, 64)          38464     
_________________________________________________________________
activation_6 (Activation)    (None, 4, 4, 64)          0         
_________________________________________________________________
batch_normalization_6 (Batch (None, 4, 4, 64)          256       
_________________________________________________________________
conv2d_7 (Conv2D)            (None, 4, 4, 64)          102464    
_________________________________________________________________
activation_7 (Activation)    (None, 4, 4, 64)          0         
_________________________________________________________________
batch_normalization_7 (Batch (None, 4, 4, 64)          256       
_________________________________________________________________
max_pooling2d_3 (MaxPooling2 (None, 2, 2, 64)          0         
_________________________________________________________________
flatten (Flatten)            (None, 256)               0         
_________________________________________________________________
dense (Dense)                (None, 2048)              526336    
_________________________________________________________________
activation_8 (Activation)    (None, 2048)              0         
_________________________________________________________________
dense_1 (Dense)              (None, 2048)              4196352   
_________________________________________________________________
activation_9 (Activation)    (None, 2048)              0         
_________________________________________________________________
dense_2 (Dense)              (None, 10)                20490     
_________________________________________________________________
activation_10 (Activation)   (None, 10)                0         
=================================================================
Total params: 5,195,882
Trainable params: 5,195,178
Non-trainable params: 704
_________________________________________________________________
Epoch 1/10
1562/1562 - 15s - loss: 1.5878 - accuracy: 0.4176 - val_loss: 1.3946 - val_accuracy: 0.5110
Epoch 2/10
1562/1562 - 15s - loss: 1.2189 - accuracy: 0.5632 - val_loss: 1.5845 - val_accuracy: 0.4917
…
[array([[83.35272]], dtype=float32), array([[89.22679]], dtype=float32), array([[102.45744]], dtype=float32), array([[187.70107]], dtype=float32), array([[243.70845]], dtype=float32), 401.408]
New Contested Point and Value: 
[array([2, 1, 1, 2, 2, 3]), [64.0, 7.0, 24.0, 7.0, 24.0, 5.0, 24.0, 3.0, 64.0, 5.0, 2048.0, 2048.0]] [-24.059998989105225, -503.9286193847656, -83.35272216796875]
Model: "functional_1"
_________________________________________________________________
Layer (type)                 Output Shape              Param #   
=================================================================
input_1 (InputLayer)         [(None, 32, 32, 3)]       0         
_________________________________________________________________
conv2d (Conv2D)              (None, 32, 32, 36)        1008      
_________________________________________________________________
activation (Activation)      (None, 32, 32, 36)        0         
_________________________________________________________________
batch_normalization (BatchNo (None, 32, 32, 36)        144       
_________________________________________________________________
conv2d_1 (Conv2D)            (None, 32, 32, 36)        11700     
_________________________________________________________________
activation_1 (Activation)    (None, 32, 32, 36)        0         
_________________________________________________________________
batch_normalization_1 (Batch (None, 32, 32, 36)        144       
_________________________________________________________________
conv2d_2 (Conv2D)            (None, 32, 32, 36)        11700     
_________________________________________________________________
activation_2 (Activation)    (None, 32, 32, 36)        0         
_________________________________________________________________
batch_normalization_2 (Batch (None, 32, 32, 36)        144       
_________________________________________________________________
conv2d_3 (Conv2D)            (None, 32, 32, 36)        11700     
_________________________________________________________________
activation_3 (Activation)    (None, 32, 32, 36)        0         
_________________________________________________________________
batch_normalization_3 (Batch (None, 32, 32, 36)        144       
_________________________________________________________________
max_pooling2d (MaxPooling2D) (None, 16, 16, 36)        0         
_________________________________________________________________
conv2d_4 (Conv2D)            (None, 16, 16, 96)        169440    
_________________________________________________________________
activation_4 (Activation)    (None, 16, 16, 96)        0         
_________________________________________________________________
batch_normalization_4 (Batch (None, 16, 16, 96)        384       
_________________________________________________________________
conv2d_5 (Conv2D)            (None, 16, 16, 96)        451680    
_________________________________________________________________
activation_5 (Activation)    (None, 16, 16, 96)        0         
_________________________________________________________________
batch_normalization_5 (Batch (None, 16, 16, 96)        384       
_________________________________________________________________
max_pooling2d_1 (MaxPooling2 (None, 8, 8, 96)          0         
_________________________________________________________________
conv2d_6 (Conv2D)            (None, 8, 8, 96)          451680    
_________________________________________________________________
activation_6 (Activation)    (None, 8, 8, 96)          0         
_________________________________________________________________
batch_normalization_6 (Batch (None, 8, 8, 96)          384       
_________________________________________________________________
max_pooling2d_2 (MaxPooling2 (None, 4, 4, 96)          0         
_________________________________________________________________
conv2d_7 (Conv2D)            (None, 4, 4, 64)          55360     
_________________________________________________________________
activation_7 (Activation)    (None, 4, 4, 64)          0         
_________________________________________________________________
batch_normalization_7 (Batch (None, 4, 4, 64)          256       
_________________________________________________________________
max_pooling2d_3 (MaxPooling2 (None, 2, 2, 64)          0         
_________________________________________________________________
flatten (Flatten)            (None, 256)               0         
_________________________________________________________________
dense (Dense)                (None, 256)               65792     
_________________________________________________________________
activation_8 (Activation)    (None, 256)               0         
_________________________________________________________________
dense_1 (Dense)              (None, 512)               131584    
_________________________________________________________________
activation_9 (Activation)    (None, 512)               0         
_________________________________________________________________
dense_2 (Dense)              (None, 10)                5130      
_________________________________________________________________
activation_10 (Activation)   (None, 10)                0         
=================================================================
Total params: 1,368,758
Trainable params: 1,367,766
Non-trainable params: 992
_________________________________________________________________
Epoch 1/10
1562/1562 - 15s - loss: 1.4007 - accuracy: 0.4950 - val_loss: 1.2609 - val_accuracy: 0.5611
Epoch 2/10
1562/1562 - 15s - loss: 0.9429 - accuracy: 0.6638 - val_loss: 0.8315 - val_accuracy: 0.7149
…
[array([[72.855545]], dtype=float32), array([[79.15321]], dtype=float32), array([[81.894714]], dtype=float32), array([[199.03082]], dtype=float32), 401.408]
New Contested Point and Value: 
[array([2, 2, 2, 1, 1, 1]), [36.0, 3.0, 36.0, 3.0, 96.0, 7.0, 96.0, 7.0, 64.0, 3.0, 256.0, 512.0]] [-18.2699978351593, -476.2132263183594, -79.15321350097656]
Model: "functional_1"
_________________________________________________________________
Layer (type)                 Output Shape              Param #   
=================================================================
input_1 (InputLayer)         [(None, 32, 32, 3)]       0         
_________________________________________________________________
conv2d (Conv2D)              (None, 32, 32, 36)        1008      
_________________________________________________________________
activation (Activation)      (None, 32, 32, 36)        0         
_________________________________________________________________
batch_normalization (BatchNo (None, 32, 32, 36)        144       
_________________________________________________________________
max_pooling2d (MaxPooling2D) (None, 16, 16, 36)        0         
_________________________________________________________________
conv2d_1 (Conv2D)            (None, 16, 16, 256)       230656    
_________________________________________________________________
activation_1 (Activation)    (None, 16, 16, 256)       0         
_________________________________________________________________
batch_normalization_1 (Batch (None, 16, 16, 256)       1024      
_________________________________________________________________
conv2d_2 (Conv2D)            (None, 16, 16, 256)       1638656   
_________________________________________________________________
activation_2 (Activation)    (None, 16, 16, 256)       0         
_________________________________________________________________
batch_normalization_2 (Batch (None, 16, 16, 256)       1024      
_________________________________________________________________
max_pooling2d_1 (MaxPooling2 (None, 8, 8, 256)         0         
_________________________________________________________________
conv2d_3 (Conv2D)            (None, 8, 8, 256)         590080    
_________________________________________________________________
activation_3 (Activation)    (None, 8, 8, 256)         0         
_________________________________________________________________
batch_normalization_3 (Batch (None, 8, 8, 256)         1024      
_________________________________________________________________
conv2d_4 (Conv2D)            (None, 8, 8, 256)         590080    
_________________________________________________________________
activation_4 (Activation)    (None, 8, 8, 256)         0         
_________________________________________________________________
batch_normalization_4 (Batch (None, 8, 8, 256)         1024      
_________________________________________________________________
conv2d_5 (Conv2D)            (None, 8, 8, 36)          451620    
_________________________________________________________________
activation_5 (Activation)    (None, 8, 8, 36)          0         
_________________________________________________________________
batch_normalization_5 (Batch (None, 8, 8, 36)          144       
_________________________________________________________________
max_pooling2d_2 (MaxPooling2 (None, 4, 4, 36)          0         
_________________________________________________________________
conv2d_6 (Conv2D)            (None, 4, 4, 96)          169440    
_________________________________________________________________
activation_6 (Activation)    (None, 4, 4, 96)          0         
_________________________________________________________________
batch_normalization_6 (Batch (None, 4, 4, 96)          384       
_________________________________________________________________
max_pooling2d_3 (MaxPooling2 (None, 2, 2, 96)          0         
_________________________________________________________________
flatten (Flatten)            (None, 384)               0         
_________________________________________________________________
dense (Dense)                (None, 512)               197120    
_________________________________________________________________
activation_7 (Activation)    (None, 512)               0         
_________________________________________________________________
dense_1 (Dense)              (None, 256)               131328    
_________________________________________________________________
activation_8 (Activation)    (None, 256)               0         
_________________________________________________________________
dense_2 (Dense)              (None, 10)                2570      
_________________________________________________________________
activation_9 (Activation)    (None, 10)                0         
=================================================================
Total params: 4,007,326
Trainable params: 4,004,942
Non-trainable params: 2,384
_________________________________________________________________
Epoch 1/10
1562/1562 - 17s - loss: 1.4757 - accuracy: 0.4685 - val_loss: 1.3375 - val_accuracy: 0.5366
Epoch 2/10
1562/1562 - 17s - loss: 1.0750 - accuracy: 0.6199 - val_loss: 1.0054 - val_accuracy: 0.6529
…
[array([[79.39039]], dtype=float32), array([[81.18392]], dtype=float32), array([[81.19822]], dtype=float32), array([[267.77194]], dtype=float32), array([[361.61044]], dtype=float32), 401.408]
New Contested Point and Value: 
[array([1, 2, 2, 1, 1, 3]), [36.0, 3.0, 256.0, 5.0, 256.0, 3.0, 36.0, 7.0, 96.0, 7.0, 512.0, 256.0]] [-18.250000476837158, -508.1794738769531, -81.18392181396484]
Model: "functional_1"
_________________________________________________________________
Layer (type)                 Output Shape              Param #   
=================================================================
input_1 (InputLayer)         [(None, 32, 32, 3)]       0         
_________________________________________________________________
conv2d (Conv2D)              (None, 32, 32, 96)        14208     
_________________________________________________________________
activation (Activation)      (None, 32, 32, 96)        0         
_________________________________________________________________
batch_normalization (BatchNo (None, 32, 32, 96)        384       
_________________________________________________________________
max_pooling2d (MaxPooling2D) (None, 16, 16, 96)        0         
_________________________________________________________________
conv2d_1 (Conv2D)            (None, 16, 16, 128)       602240    
_________________________________________________________________
activation_1 (Activation)    (None, 16, 16, 128)       0         
_________________________________________________________________
batch_normalization_1 (Batch (None, 16, 16, 128)       512       
_________________________________________________________________
max_pooling2d_1 (MaxPooling2 (None, 8, 8, 128)         0         
_________________________________________________________________
conv2d_2 (Conv2D)            (None, 8, 8, 128)         409728    
_________________________________________________________________
activation_2 (Activation)    (None, 8, 8, 128)         0         
_________________________________________________________________
batch_normalization_2 (Batch (None, 8, 8, 128)         512       
_________________________________________________________________
max_pooling2d_2 (MaxPooling2 (None, 4, 4, 128)         0         
_________________________________________________________________
conv2d_3 (Conv2D)            (None, 4, 4, 64)          73792     
_________________________________________________________________
activation_3 (Activation)    (None, 4, 4, 64)          0         
_________________________________________________________________
batch_normalization_3 (Batch (None, 4, 4, 64)          256       
_________________________________________________________________
max_pooling2d_3 (MaxPooling2 (None, 2, 2, 64)          0         
_________________________________________________________________
conv2d_4 (Conv2D)            (None, 2, 2, 96)          153696    
_________________________________________________________________
activation_4 (Activation)    (None, 2, 2, 96)          0         
_________________________________________________________________
batch_normalization_4 (Batch (None, 2, 2, 96)          384       
_________________________________________________________________
conv2d_5 (Conv2D)            (None, 2, 2, 96)          230496    
_________________________________________________________________
activation_5 (Activation)    (None, 2, 2, 96)          0         
_________________________________________________________________
batch_normalization_5 (Batch (None, 2, 2, 96)          384       
_________________________________________________________________
flatten (Flatten)            (None, 384)               0         
_________________________________________________________________
dense (Dense)                (None, 256)               98560     
_________________________________________________________________
activation_6 (Activation)    (None, 256)               0         
_________________________________________________________________
dense_1 (Dense)              (None, 512)               131584    
_________________________________________________________________
activation_7 (Activation)    (None, 512)               0         
_________________________________________________________________
dense_2 (Dense)              (None, 10)                5130      
_________________________________________________________________
activation_8 (Activation)    (None, 10)                0         
=================================================================
Total params: 1,721,866
Trainable params: 1,720,650
Non-trainable params: 1,216
_________________________________________________________________
Epoch 1/10
1562/1562 - 16s - loss: 1.5798 - accuracy: 0.4216 - val_loss: 1.6999 - val_accuracy: 0.3874
Epoch 2/10
1562/1562 - 15s - loss: 1.2327 - accuracy: 0.5604 - val_loss: 1.2187 - val_accuracy: 0.5725
…
[array([[64.32481]], dtype=float32), array([[70.62248]], dtype=float32), array([[73.36398]], dtype=float32), array([[180.28847]], dtype=float32), array([[257.21466]], dtype=float32), array([[257.21466]], dtype=float32), 401.408]
New Contested Point and Value: 
[array([1, 1, 1, 1, 2, 5]), [96.0, 7.0, 128.0, 7.0, 128.0, 5.0, 64.0, 3.0, 96.0, 5.0, 256.0, 512.0]] [-23.549997806549072, -432.9549865722656, -70.62248229980469]
Model: "functional_1"
_________________________________________________________________
Layer (type)                 Output Shape              Param #   
=================================================================
input_1 (InputLayer)         [(None, 32, 32, 3)]       0         
_________________________________________________________________
conv2d (Conv2D)              (None, 32, 32, 128)       3584      
_________________________________________________________________
activation (Activation)      (None, 32, 32, 128)       0         
_________________________________________________________________
batch_normalization (BatchNo (None, 32, 32, 128)       512       
_________________________________________________________________
max_pooling2d (MaxPooling2D) (None, 16, 16, 128)       0         
_________________________________________________________________
conv2d_1 (Conv2D)            (None, 16, 16, 256)       819456    
_________________________________________________________________
activation_1 (Activation)    (None, 16, 16, 256)       0         
_________________________________________________________________
batch_normalization_1 (Batch (None, 16, 16, 256)       1024      
_________________________________________________________________
conv2d_2 (Conv2D)            (None, 16, 16, 256)       1638656   
_________________________________________________________________
activation_2 (Activation)    (None, 16, 16, 256)       0         
_________________________________________________________________
batch_normalization_2 (Batch (None, 16, 16, 256)       1024      
_________________________________________________________________
max_pooling2d_1 (MaxPooling2 (None, 8, 8, 256)         0         
_________________________________________________________________
conv2d_3 (Conv2D)            (None, 8, 8, 24)          55320     
_________________________________________________________________
activation_3 (Activation)    (None, 8, 8, 24)          0         
_________________________________________________________________
batch_normalization_3 (Batch (None, 8, 8, 24)          96        
_________________________________________________________________
conv2d_4 (Conv2D)            (None, 8, 8, 24)          5208      
_________________________________________________________________
activation_4 (Activation)    (None, 8, 8, 24)          0         
_________________________________________________________________
batch_normalization_4 (Batch (None, 8, 8, 24)          96        
_________________________________________________________________
max_pooling2d_2 (MaxPooling2 (None, 4, 4, 24)          0         
_________________________________________________________________
conv2d_5 (Conv2D)            (None, 4, 4, 256)         153856    
_________________________________________________________________
activation_5 (Activation)    (None, 4, 4, 256)         0         
_________________________________________________________________
batch_normalization_5 (Batch (None, 4, 4, 256)         1024      
_________________________________________________________________
conv2d_6 (Conv2D)            (None, 4, 4, 256)         3211520   
_________________________________________________________________
activation_6 (Activation)    (None, 4, 4, 256)         0         
_________________________________________________________________
batch_normalization_6 (Batch (None, 4, 4, 256)         1024      
_________________________________________________________________
max_pooling2d_3 (MaxPooling2 (None, 2, 2, 256)         0         
_________________________________________________________________
flatten (Flatten)            (None, 1024)              0         
_________________________________________________________________
dense (Dense)                (None, 2048)              2099200   
_________________________________________________________________
activation_7 (Activation)    (None, 2048)              0         
_________________________________________________________________
dense_1 (Dense)              (None, 2048)              4196352   
_________________________________________________________________
activation_8 (Activation)    (None, 2048)              0         
_________________________________________________________________
dense_2 (Dense)              (None, 10)                20490     
_________________________________________________________________
activation_9 (Activation)    (None, 10)                0         
=================================================================
Total params: 12,208,442
Trainable params: 12,206,042
Non-trainable params: 2,400
_________________________________________________________________
Epoch 1/10
WARNING:tensorflow:Callbacks method `on_train_batch_end` is slow compared to the batch time (batch time: 0.0057s vs `on_train_batch_end` time: 0.0091s). Check your callbacks.
…
[array([[112.54591]], dtype=float32), array([[118.41998]], dtype=float32), array([[131.65063]], dtype=float32), array([[267.0195]], dtype=float32), 401.408]
New Contested Point and Value: 
[array([1, 2, 2, 1, 1, 4]), [128.0, 3.0, 256.0, 5.0, 24.0, 3.0, 256.0, 5.0, 256.0, 7.0, 2048.0, 2048.0]] [-24.779999256134033, -767.6077270507812, -112.54591369628906]
Model: "functional_1"
_________________________________________________________________
Layer (type)                 Output Shape              Param #   
=================================================================
input_1 (InputLayer)         [(None, 32, 32, 3)]       0         
_________________________________________________________________
conv2d (Conv2D)              (None, 32, 32, 24)        3552      
_________________________________________________________________
activation (Activation)      (None, 32, 32, 24)        0         
_________________________________________________________________
batch_normalization (BatchNo (None, 32, 32, 24)        96        
_________________________________________________________________
conv2d_1 (Conv2D)            (None, 32, 32, 24)        28248     
_________________________________________________________________
activation_1 (Activation)    (None, 32, 32, 24)        0         
_________________________________________________________________
batch_normalization_1 (Batch (None, 32, 32, 24)        96        
_________________________________________________________________
max_pooling2d (MaxPooling2D) (None, 16, 16, 24)        0         
_________________________________________________________________
conv2d_2 (Conv2D)            (None, 16, 16, 64)        75328     
_________________________________________________________________
activation_2 (Activation)    (None, 16, 16, 64)        0         
_________________________________________________________________
batch_normalization_2 (Batch (None, 16, 16, 64)        256       
_________________________________________________________________
max_pooling2d_1 (MaxPooling2 (None, 8, 8, 64)          0         
_________________________________________________________________
conv2d_3 (Conv2D)            (None, 8, 8, 96)          301152    
_________________________________________________________________
activation_3 (Activation)    (None, 8, 8, 96)          0         
_________________________________________________________________
batch_normalization_3 (Batch (None, 8, 8, 96)          384       
_________________________________________________________________
conv2d_4 (Conv2D)            (None, 8, 8, 96)          451680    
_________________________________________________________________
activation_4 (Activation)    (None, 8, 8, 96)          0         
_________________________________________________________________
batch_normalization_4 (Batch (None, 8, 8, 96)          384       
_________________________________________________________________
max_pooling2d_2 (MaxPooling2 (None, 4, 4, 96)          0         
_________________________________________________________________
conv2d_5 (Conv2D)            (None, 4, 4, 24)          20760     
_________________________________________________________________
activation_5 (Activation)    (None, 4, 4, 24)          0         
_________________________________________________________________
batch_normalization_5 (Batch (None, 4, 4, 24)          96        
_________________________________________________________________
conv2d_6 (Conv2D)            (None, 4, 4, 128)         27776     
_________________________________________________________________
activation_6 (Activation)    (None, 4, 4, 128)         0         
_________________________________________________________________
batch_normalization_6 (Batch (None, 4, 4, 128)         512       
_________________________________________________________________
max_pooling2d_3 (MaxPooling2 (None, 2, 2, 128)         0         
_________________________________________________________________
flatten (Flatten)            (None, 512)               0         
_________________________________________________________________
dense (Dense)                (None, 8192)              4202496   
_________________________________________________________________
activation_7 (Activation)    (None, 8192)              0         
_________________________________________________________________
dense_1 (Dense)              (None, 512)               4194816   
_________________________________________________________________
activation_8 (Activation)    (None, 512)               0         
_________________________________________________________________
dense_2 (Dense)              (None, 10)                5130      
_________________________________________________________________
activation_9 (Activation)    (None, 10)                0         
=================================================================
Total params: 9,312,762
Trainable params: 9,311,850
Non-trainable params: 912
_________________________________________________________________
Epoch 1/10
1562/1562 - 16s - loss: 1.5058 - accuracy: 0.4533 - val_loss: 1.2364 - val_accuracy: 0.5661
Epoch 2/10
1562/1562 - 15s - loss: 1.1000 - accuracy: 0.6103 - val_loss: 1.0797 - val_accuracy: 0.6203
…
[array([[67.15057]], dtype=float32), array([[69.892075]], dtype=float32), array([[145.26729]], dtype=float32), array([[245.74355]], dtype=float32), array([[245.74355]], dtype=float32), array([[318.4975]], dtype=float32), 401.408]
New Contested Point and Value: 
[array([2, 1, 2, 1, 1, 4]), [24.0, 7.0, 64.0, 7.0, 96.0, 7.0, 24.0, 3.0, 128.0, 3.0, 8192.0, 512.0]] [-20.829999446868896, -400.16839599609375, -67.15057373046875]
Model: "functional_1"
_________________________________________________________________
Layer (type)                 Output Shape              Param #   
=================================================================
input_1 (InputLayer)         [(None, 32, 32, 3)]       0         
_________________________________________________________________
conv2d (Conv2D)              (None, 32, 32, 64)        9472      
_________________________________________________________________
activation (Activation)      (None, 32, 32, 64)        0         
_________________________________________________________________
batch_normalization (BatchNo (None, 32, 32, 64)        256       
_________________________________________________________________
conv2d_1 (Conv2D)            (None, 32, 32, 64)        200768    
_________________________________________________________________
activation_1 (Activation)    (None, 32, 32, 64)        0         
_________________________________________________________________
batch_normalization_1 (Batch (None, 32, 32, 64)        256       
_________________________________________________________________
max_pooling2d (MaxPooling2D) (None, 16, 16, 64)        0         
_________________________________________________________________
conv2d_2 (Conv2D)            (None, 16, 16, 24)        75288     
_________________________________________________________________
activation_2 (Activation)    (None, 16, 16, 24)        0         
_________________________________________________________________
batch_normalization_2 (Batch (None, 16, 16, 24)        96        
_________________________________________________________________
max_pooling2d_1 (MaxPooling2 (None, 8, 8, 24)          0         
_________________________________________________________________
conv2d_3 (Conv2D)            (None, 8, 8, 24)          14424     
_________________________________________________________________
activation_3 (Activation)    (None, 8, 8, 24)          0         
_________________________________________________________________
batch_normalization_3 (Batch (None, 8, 8, 24)          96        
_________________________________________________________________
conv2d_4 (Conv2D)            (None, 8, 8, 24)          14424     
_________________________________________________________________
activation_4 (Activation)    (None, 8, 8, 24)          0         
_________________________________________________________________
batch_normalization_4 (Batch (None, 8, 8, 24)          96        
_________________________________________________________________
max_pooling2d_2 (MaxPooling2 (None, 4, 4, 24)          0         
_________________________________________________________________
conv2d_5 (Conv2D)            (None, 4, 4, 64)          13888     
_________________________________________________________________
activation_5 (Activation)    (None, 4, 4, 64)          0         
_________________________________________________________________
batch_normalization_5 (Batch (None, 4, 4, 64)          256       
_________________________________________________________________
conv2d_6 (Conv2D)            (None, 4, 4, 64)          36928     
_________________________________________________________________
activation_6 (Activation)    (None, 4, 4, 64)          0         
_________________________________________________________________
batch_normalization_6 (Batch (None, 4, 4, 64)          256       
_________________________________________________________________
conv2d_7 (Conv2D)            (None, 4, 4, 36)          57636     
_________________________________________________________________
activation_7 (Activation)    (None, 4, 4, 36)          0         
_________________________________________________________________
batch_normalization_7 (Batch (None, 4, 4, 36)          144       
_________________________________________________________________
conv2d_8 (Conv2D)            (None, 4, 4, 36)          32436     
_________________________________________________________________
activation_8 (Activation)    (None, 4, 4, 36)          0         
_________________________________________________________________
batch_normalization_8 (Batch (None, 4, 4, 36)          144       
_________________________________________________________________
max_pooling2d_3 (MaxPooling2 (None, 2, 2, 36)          0         
_________________________________________________________________
flatten (Flatten)            (None, 144)               0         
_________________________________________________________________
dense (Dense)                (None, 256)               37120     
_________________________________________________________________
activation_9 (Activation)    (None, 256)               0         
_________________________________________________________________
dense_1 (Dense)              (None, 10)                2570      
_________________________________________________________________
activation_10 (Activation)   (None, 10)                0         
=================================================================
Total params: 496,554
Trainable params: 495,754
Non-trainable params: 800
_________________________________________________________________
Epoch 1/10
1562/1562 - 15s - loss: 1.6355 - accuracy: 0.4006 - val_loss: 1.4720 - val_accuracy: 0.4777
Epoch 2/10
1562/1562 - 15s - loss: 1.2949 - accuracy: 0.5343 - val_loss: 1.2408 - val_accuracy: 0.5609
…
[array([[66.14926]], dtype=float32), array([[66.16355]], dtype=float32), array([[66.16355]], dtype=float32), array([[133.96355]], dtype=float32), array([[239.02374]], dtype=float32), array([[358.92584]], dtype=float32), 401.408]
New Contested Point and Value: 
[array([2, 1, 2, 2, 2, 4]), [64.0, 7.0, 24.0, 7.0, 24.0, 5.0, 64.0, 3.0, 36.0, 5.0, 256.0, 0.0]] [-25.34000277519226, -370.496826171875, -66.14926147460938]
Model: "functional_1"
_________________________________________________________________
Layer (type)                 Output Shape              Param #   
=================================================================
input_1 (InputLayer)         [(None, 32, 32, 3)]       0         
_________________________________________________________________
conv2d (Conv2D)              (None, 32, 32, 96)        2688      
_________________________________________________________________
activation (Activation)      (None, 32, 32, 96)        0         
_________________________________________________________________
batch_normalization (BatchNo (None, 32, 32, 96)        384       
_________________________________________________________________
conv2d_1 (Conv2D)            (None, 32, 32, 96)        83040     
_________________________________________________________________
activation_1 (Activation)    (None, 32, 32, 96)        0         
_________________________________________________________________
batch_normalization_1 (Batch (None, 32, 32, 96)        384       
_________________________________________________________________
max_pooling2d (MaxPooling2D) (None, 16, 16, 96)        0         
_________________________________________________________________
conv2d_2 (Conv2D)            (None, 16, 16, 36)        86436     
_________________________________________________________________
activation_2 (Activation)    (None, 16, 16, 36)        0         
_________________________________________________________________
batch_normalization_2 (Batch (None, 16, 16, 36)        144       
_________________________________________________________________
max_pooling2d_1 (MaxPooling2 (None, 8, 8, 36)          0         
_________________________________________________________________
conv2d_3 (Conv2D)            (None, 8, 8, 256)         230656    
_________________________________________________________________
activation_3 (Activation)    (None, 8, 8, 256)         0         
_________________________________________________________________
batch_normalization_3 (Batch (None, 8, 8, 256)         1024      
_________________________________________________________________
conv2d_4 (Conv2D)            (None, 8, 8, 64)          409664    
_________________________________________________________________
activation_4 (Activation)    (None, 8, 8, 64)          0         
_________________________________________________________________
batch_normalization_4 (Batch (None, 8, 8, 64)          256       
_________________________________________________________________
conv2d_5 (Conv2D)            (None, 8, 8, 64)          102464    
_________________________________________________________________
activation_5 (Activation)    (None, 8, 8, 64)          0         
_________________________________________________________________
batch_normalization_5 (Batch (None, 8, 8, 64)          256       
_________________________________________________________________
max_pooling2d_2 (MaxPooling2 (None, 4, 4, 64)          0         
_________________________________________________________________
conv2d_6 (Conv2D)            (None, 4, 4, 24)          13848     
_________________________________________________________________
activation_6 (Activation)    (None, 4, 4, 24)          0         
_________________________________________________________________
batch_normalization_6 (Batch (None, 4, 4, 24)          96        
_________________________________________________________________
conv2d_7 (Conv2D)            (None, 4, 4, 24)          5208      
_________________________________________________________________
activation_7 (Activation)    (None, 4, 4, 24)          0         
_________________________________________________________________
batch_normalization_7 (Batch (None, 4, 4, 24)          96        
_________________________________________________________________
max_pooling2d_3 (MaxPooling2 (None, 2, 2, 24)          0         
_________________________________________________________________
flatten (Flatten)            (None, 96)                0         
_________________________________________________________________
dense (Dense)                (None, 4096)              397312    
_________________________________________________________________
activation_8 (Activation)    (None, 4096)              0         
_________________________________________________________________
dense_1 (Dense)              (None, 8192)              33562624  
_________________________________________________________________
activation_9 (Activation)    (None, 8192)              0         
_________________________________________________________________
dense_2 (Dense)              (None, 10)                81930     
_________________________________________________________________
activation_10 (Activation)   (None, 10)                0         
=================================================================
Total params: 34,978,510
Trainable params: 34,977,190
Non-trainable params: 1,320
_________________________________________________________________
Epoch 1/10
1562/1562 - 19s - loss: 1.3454 - accuracy: 0.5132 - val_loss: 1.1757 - val_accuracy: 0.6029
Epoch 2/10
1562/1562 - 19s - loss: 0.9067 - accuracy: 0.6826 - val_loss: 0.9810 - val_accuracy: 0.6758
…
[array([[80.30043]], dtype=float32), array([[110.000854]], dtype=float32), array([[114.64816]], dtype=float32), array([[164.85806]], dtype=float32), array([[259.7027]], dtype=float32), 401.408]
New Contested Point and Value: 
[array([2, 1, 1, 2, 2, 3]), [96.0, 3.0, 36.0, 5.0, 256.0, 5.0, 64.0, 5.0, 24.0, 3.0, 4096.0, 8192.0]] [-18.300002813339233, -502.2856750488281, -80.30043029785156]
Model: "functional_1"
_________________________________________________________________
Layer (type)                 Output Shape              Param #   
=================================================================
input_1 (InputLayer)         [(None, 32, 32, 3)]       0         
_________________________________________________________________
conv2d (Conv2D)              (None, 32, 32, 96)        14208     
_________________________________________________________________
activation (Activation)      (None, 32, 32, 96)        0         
_________________________________________________________________
batch_normalization (BatchNo (None, 32, 32, 96)        384       
_________________________________________________________________
max_pooling2d (MaxPooling2D) (None, 16, 16, 96)        0         
_________________________________________________________________
conv2d_1 (Conv2D)            (None, 16, 16, 24)        20760     
_________________________________________________________________
activation_1 (Activation)    (None, 16, 16, 24)        0         
_________________________________________________________________
batch_normalization_1 (Batch (None, 16, 16, 24)        96        
_________________________________________________________________
conv2d_2 (Conv2D)            (None, 16, 16, 24)        5208      
_________________________________________________________________
activation_2 (Activation)    (None, 16, 16, 24)        0         
_________________________________________________________________
batch_normalization_2 (Batch (None, 16, 16, 24)        96        
_________________________________________________________________
max_pooling2d_1 (MaxPooling2 (None, 8, 8, 24)          0         
_________________________________________________________________
conv2d_3 (Conv2D)            (None, 8, 8, 256)         55552     
_________________________________________________________________
activation_3 (Activation)    (None, 8, 8, 256)         0         
_________________________________________________________________
batch_normalization_3 (Batch (None, 8, 8, 256)         1024      
_________________________________________________________________
conv2d_4 (Conv2D)            (None, 8, 8, 256)         590080    
_________________________________________________________________
activation_4 (Activation)    (None, 8, 8, 256)         0         
_________________________________________________________________
batch_normalization_4 (Batch (None, 8, 8, 256)         1024      
_________________________________________________________________
max_pooling2d_2 (MaxPooling2 (None, 4, 4, 256)         0         
_________________________________________________________________
conv2d_5 (Conv2D)            (None, 4, 4, 36)          451620    
_________________________________________________________________
activation_5 (Activation)    (None, 4, 4, 36)          0         
_________________________________________________________________
batch_normalization_5 (Batch (None, 4, 4, 36)          144       
_________________________________________________________________
conv2d_6 (Conv2D)            (None, 4, 4, 96)          31200     
_________________________________________________________________
activation_6 (Activation)    (None, 4, 4, 96)          0         
_________________________________________________________________
batch_normalization_6 (Batch (None, 4, 4, 96)          384       
_________________________________________________________________
conv2d_7 (Conv2D)            (None, 4, 4, 96)          83040     
_________________________________________________________________
activation_7 (Activation)    (None, 4, 4, 96)          0         
_________________________________________________________________
batch_normalization_7 (Batch (None, 4, 4, 96)          384       
_________________________________________________________________
max_pooling2d_3 (MaxPooling2 (None, 2, 2, 96)          0         
_________________________________________________________________
flatten (Flatten)            (None, 384)               0         
_________________________________________________________________
dense (Dense)                (None, 8192)              3153920   
_________________________________________________________________
activation_8 (Activation)    (None, 8192)              0         
_________________________________________________________________
dense_1 (Dense)              (None, 256)               2097408   
_________________________________________________________________
activation_9 (Activation)    (None, 256)               0         
_________________________________________________________________
dense_2 (Dense)              (None, 10)                2570      
_________________________________________________________________
activation_10 (Activation)   (None, 10)                0         
=================================================================
Total params: 6,509,102
Trainable params: 6,507,334
Non-trainable params: 1,768
_________________________________________________________________
Epoch 1/10
1562/1562 - 16s - loss: 1.5088 - accuracy: 0.4492 - val_loss: 1.4504 - val_accuracy: 0.5154
Epoch 2/10
1562/1562 - 15s - loss: 1.1478 - accuracy: 0.5929 - val_loss: 1.0047 - val_accuracy: 0.6438
…
[array([[69.659]], dtype=float32), array([[69.673294]], dtype=float32), array([[149.5568]], dtype=float32), array([[256.02744]], dtype=float32), array([[345.7136]], dtype=float32), array([[345.7136]], dtype=float32), 401.408]
New Contested Point and Value: 
[array([1, 2, 2, 1, 2, 4]), [96.0, 7.0, 24.0, 3.0, 256.0, 3.0, 36.0, 7.0, 96.0, 3.0, 8192.0, 256.0]] [-21.50999903678894, -416.5621337890625, -69.65899658203125]
Model: "functional_1"
_________________________________________________________________
Layer (type)                 Output Shape              Param #   
=================================================================
input_1 (InputLayer)         [(None, 32, 32, 3)]       0         
_________________________________________________________________
conv2d (Conv2D)              (None, 32, 32, 96)        14208     
_________________________________________________________________
activation (Activation)      (None, 32, 32, 96)        0         
_________________________________________________________________
batch_normalization (BatchNo (None, 32, 32, 96)        384       
_________________________________________________________________
conv2d_1 (Conv2D)            (None, 32, 32, 96)        451680    
_________________________________________________________________
activation_1 (Activation)    (None, 32, 32, 96)        0         
_________________________________________________________________
batch_normalization_1 (Batch (None, 32, 32, 96)        384       
_________________________________________________________________
max_pooling2d (MaxPooling2D) (None, 16, 16, 96)        0         
_________________________________________________________________
conv2d_2 (Conv2D)            (None, 16, 16, 256)       614656    
_________________________________________________________________
activation_2 (Activation)    (None, 16, 16, 256)       0         
_________________________________________________________________
batch_normalization_2 (Batch (None, 16, 16, 256)       1024      
_________________________________________________________________
conv2d_3 (Conv2D)            (None, 16, 16, 256)       1638656   
_________________________________________________________________
activation_3 (Activation)    (None, 16, 16, 256)       0         
_________________________________________________________________
batch_normalization_3 (Batch (None, 16, 16, 256)       1024      
_________________________________________________________________
conv2d_4 (Conv2D)            (None, 16, 16, 36)        82980     
_________________________________________________________________
activation_4 (Activation)    (None, 16, 16, 36)        0         
_________________________________________________________________
batch_normalization_4 (Batch (None, 16, 16, 36)        144       
_________________________________________________________________
conv2d_5 (Conv2D)            (None, 16, 16, 36)        11700     
_________________________________________________________________
activation_5 (Activation)    (None, 16, 16, 36)        0         
_________________________________________________________________
batch_normalization_5 (Batch (None, 16, 16, 36)        144       
_________________________________________________________________
max_pooling2d_1 (MaxPooling2 (None, 8, 8, 36)          0         
_________________________________________________________________
conv2d_6 (Conv2D)            (None, 8, 8, 24)          7800      
_________________________________________________________________
activation_6 (Activation)    (None, 8, 8, 24)          0         
_________________________________________________________________
batch_normalization_6 (Batch (None, 8, 8, 24)          96        
_________________________________________________________________
conv2d_7 (Conv2D)            (None, 8, 8, 24)          5208      
_________________________________________________________________
activation_7 (Activation)    (None, 8, 8, 24)          0         
_________________________________________________________________
batch_normalization_7 (Batch (None, 8, 8, 24)          96        
_________________________________________________________________
max_pooling2d_2 (MaxPooling2 (None, 4, 4, 24)          0         
_________________________________________________________________
conv2d_8 (Conv2D)            (None, 4, 4, 36)          21636     
_________________________________________________________________
activation_8 (Activation)    (None, 4, 4, 36)          0         
_________________________________________________________________
batch_normalization_8 (Batch (None, 4, 4, 36)          144       
_________________________________________________________________
max_pooling2d_3 (MaxPooling2 (None, 2, 2, 36)          0         
_________________________________________________________________
flatten (Flatten)            (None, 144)               0         
_________________________________________________________________
dense (Dense)                (None, 4096)              593920    
_________________________________________________________________
activation_9 (Activation)    (None, 4096)              0         
_________________________________________________________________
dense_1 (Dense)              (None, 2048)              8390656   
_________________________________________________________________
activation_10 (Activation)   (None, 2048)              0         
_________________________________________________________________
dense_2 (Dense)              (None, 10)                20490     
_________________________________________________________________
activation_11 (Activation)   (None, 10)                0         
=================================================================
Total params: 11,857,030
Trainable params: 11,855,310
Non-trainable params: 1,720
_________________________________________________________________
Epoch 1/10
1562/1562 - 30s - loss: 1.5222 - accuracy: 0.4424 - val_loss: 1.4973 - val_accuracy: 0.4766
Epoch 2/10
1562/1562 - 30s - loss: 1.1245 - accuracy: 0.5976 - val_loss: 1.0616 - val_accuracy: 0.6359
…
[array([[122.824]], dtype=float32), array([[141.92873]], dtype=float32), array([[150.49414]], dtype=float32), array([[170.88101]], dtype=float32), array([[290.65613]], dtype=float32), array([[395.84332]], dtype=float32), 401.408]
New Contested Point and Value: 
[array([2, 2, 2, 2, 1, 2]), [96.0, 7.0, 256.0, 5.0, 36.0, 3.0, 24.0, 3.0, 36.0, 5.0, 4096.0, 2048.0]] [-19.05999779701233, -820.3641967773438, -122.8239974975586]
Model: "functional_1"
_________________________________________________________________
Layer (type)                 Output Shape              Param #   
=================================================================
input_1 (InputLayer)         [(None, 32, 32, 3)]       0         
_________________________________________________________________
conv2d (Conv2D)              (None, 32, 32, 96)        7296      
_________________________________________________________________
activation (Activation)      (None, 32, 32, 96)        0         
_________________________________________________________________
batch_normalization (BatchNo (None, 32, 32, 96)        384       
_________________________________________________________________
max_pooling2d (MaxPooling2D) (None, 16, 16, 96)        0         
_________________________________________________________________
conv2d_1 (Conv2D)            (None, 16, 16, 64)        153664    
_________________________________________________________________
activation_1 (Activation)    (None, 16, 16, 64)        0         
_________________________________________________________________
batch_normalization_1 (Batch (None, 16, 16, 64)        256       
_________________________________________________________________
conv2d_2 (Conv2D)            (None, 16, 16, 64)        102464    
_________________________________________________________________
activation_2 (Activation)    (None, 16, 16, 64)        0         
_________________________________________________________________
batch_normalization_2 (Batch (None, 16, 16, 64)        256       
_________________________________________________________________
max_pooling2d_1 (MaxPooling2 (None, 8, 8, 64)          0         
_________________________________________________________________
conv2d_3 (Conv2D)            (None, 8, 8, 256)         803072    
_________________________________________________________________
activation_3 (Activation)    (None, 8, 8, 256)         0         
_________________________________________________________________
batch_normalization_3 (Batch (None, 8, 8, 256)         1024      
_________________________________________________________________
conv2d_4 (Conv2D)            (None, 8, 8, 64)          802880    
_________________________________________________________________
activation_4 (Activation)    (None, 8, 8, 64)          0         
_________________________________________________________________
batch_normalization_4 (Batch (None, 8, 8, 64)          256       
_________________________________________________________________
conv2d_5 (Conv2D)            (None, 8, 8, 64)          200768    
_________________________________________________________________
activation_5 (Activation)    (None, 8, 8, 64)          0         
_________________________________________________________________
batch_normalization_5 (Batch (None, 8, 8, 64)          256       
_________________________________________________________________
max_pooling2d_2 (MaxPooling2 (None, 4, 4, 64)          0         
_________________________________________________________________
conv2d_6 (Conv2D)            (None, 4, 4, 256)         803072    
_________________________________________________________________
activation_6 (Activation)    (None, 4, 4, 256)         0         
_________________________________________________________________
batch_normalization_6 (Batch (None, 4, 4, 256)         1024      
_________________________________________________________________
conv2d_7 (Conv2D)            (None, 4, 4, 256)         3211520   
_________________________________________________________________
activation_7 (Activation)    (None, 4, 4, 256)         0         
_________________________________________________________________
batch_normalization_7 (Batch (None, 4, 4, 256)         1024      
_________________________________________________________________
max_pooling2d_3 (MaxPooling2 (None, 2, 2, 256)         0         
_________________________________________________________________
flatten (Flatten)            (None, 1024)              0         
_________________________________________________________________
dense (Dense)                (None, 256)               262400    
_________________________________________________________________
activation_8 (Activation)    (None, 256)               0         
_________________________________________________________________
dense_1 (Dense)              (None, 2048)              526336    
_________________________________________________________________
activation_9 (Activation)    (None, 2048)              0         
_________________________________________________________________
dense_2 (Dense)              (None, 10)                20490     
_________________________________________________________________
activation_10 (Activation)   (None, 10)                0         
=================================================================
Total params: 6,898,442
Trainable params: 6,896,202
Non-trainable params: 2,240
_________________________________________________________________
Epoch 1/10
1562/1562 - 20s - loss: 1.8673 - accuracy: 0.3012 - val_loss: 2.1426 - val_accuracy: 0.2763
Epoch 2/10
1562/1562 - 19s - loss: 1.4403 - accuracy: 0.4788 - val_loss: 1.4018 - val_accuracy: 0.4885
…
[array([[83.66343]], dtype=float32), array([[96.86094]], dtype=float32), array([[115.96567]], dtype=float32), 401.408]
New Contested Point and Value: 
[array([1, 2, 1, 2, 2, 3]), [96.0, 5.0, 64.0, 5.0, 256.0, 7.0, 64.0, 7.0, 256.0, 7.0, 256.0, 2048.0]] [-27.84000039100647, -611.7896728515625, -96.8609390258789]
Model: "functional_1"
_________________________________________________________________
Layer (type)                 Output Shape              Param #   
=================================================================
input_1 (InputLayer)         [(None, 32, 32, 3)]       0         
_________________________________________________________________
conv2d (Conv2D)              (None, 32, 32, 36)        2736      
_________________________________________________________________
activation (Activation)      (None, 32, 32, 36)        0         
_________________________________________________________________
batch_normalization (BatchNo (None, 32, 32, 36)        144       
_________________________________________________________________
max_pooling2d (MaxPooling2D) (None, 16, 16, 36)        0         
_________________________________________________________________
conv2d_1 (Conv2D)            (None, 16, 16, 64)        57664     
_________________________________________________________________
activation_1 (Activation)    (None, 16, 16, 64)        0         
_________________________________________________________________
batch_normalization_1 (Batch (None, 16, 16, 64)        256       
_________________________________________________________________
max_pooling2d_1 (MaxPooling2 (None, 8, 8, 64)          0         
_________________________________________________________________
conv2d_2 (Conv2D)            (None, 8, 8, 128)         401536    
_________________________________________________________________
activation_2 (Activation)    (None, 8, 8, 128)         0         
_________________________________________________________________
batch_normalization_2 (Batch (None, 8, 8, 128)         512       
_________________________________________________________________
conv2d_3 (Conv2D)            (None, 8, 8, 128)         802944    
_________________________________________________________________
activation_3 (Activation)    (None, 8, 8, 128)         0         
_________________________________________________________________
batch_normalization_3 (Batch (None, 8, 8, 128)         512       
_________________________________________________________________
max_pooling2d_2 (MaxPooling2 (None, 4, 4, 128)         0         
_________________________________________________________________
conv2d_4 (Conv2D)            (None, 4, 4, 24)          150552    
_________________________________________________________________
activation_4 (Activation)    (None, 4, 4, 24)          0         
_________________________________________________________________
batch_normalization_4 (Batch (None, 4, 4, 24)          96        
_________________________________________________________________
conv2d_5 (Conv2D)            (None, 4, 4, 24)          28248     
_________________________________________________________________
activation_5 (Activation)    (None, 4, 4, 24)          0         
_________________________________________________________________
batch_normalization_5 (Batch (None, 4, 4, 24)          96        
_________________________________________________________________
max_pooling2d_3 (MaxPooling2 (None, 2, 2, 24)          0         
_________________________________________________________________
conv2d_6 (Conv2D)            (None, 2, 2, 64)          13888     
_________________________________________________________________
activation_6 (Activation)    (None, 2, 2, 64)          0         
_________________________________________________________________
batch_normalization_6 (Batch (None, 2, 2, 64)          256       
_________________________________________________________________
conv2d_7 (Conv2D)            (None, 2, 2, 64)          36928     
_________________________________________________________________
activation_7 (Activation)    (None, 2, 2, 64)          0         
_________________________________________________________________
batch_normalization_7 (Batch (None, 2, 2, 64)          256       
_________________________________________________________________
flatten (Flatten)            (None, 256)               0         
_________________________________________________________________
dense (Dense)                (None, 1024)              263168    
_________________________________________________________________
activation_8 (Activation)    (None, 1024)              0         
_________________________________________________________________
dense_1 (Dense)              (None, 10)                10250     
_________________________________________________________________
activation_9 (Activation)    (None, 10)                0         
=================================================================
Total params: 1,770,042
Trainable params: 1,768,978
Non-trainable params: 1,064
_________________________________________________________________
Epoch 1/10
1562/1562 - 15s - loss: 1.5023 - accuracy: 0.4540 - val_loss: 2.3945 - val_accuracy: 0.3505
Epoch 2/10
1562/1562 - 16s - loss: 1.1171 - accuracy: 0.6066 - val_loss: 1.0614 - val_accuracy: 0.6303
…
[array([[67.406624]], dtype=float32), array([[75.60253]], dtype=float32), array([[75.60253]], dtype=float32), array([[95.38547]], dtype=float32), array([[188.25293]], dtype=float32), array([[188.25293]], dtype=float32), array([[245.0873]], dtype=float32), 401.408]
New Contested Point and Value: 
[array([1, 1, 2, 2, 2, 5]), [36.0, 5.0, 64.0, 5.0, 128.0, 7.0, 24.0, 7.0, 64.0, 3.0, 1024.0, 0.0]] [-21.619999408721924, -385.7391357421875, -67.40662384033203]
Model: "functional_1"
_________________________________________________________________
Layer (type)                 Output Shape              Param #   
=================================================================
input_1 (InputLayer)         [(None, 32, 32, 3)]       0         
_________________________________________________________________
conv2d (Conv2D)              (None, 32, 32, 64)        9472      
_________________________________________________________________
activation (Activation)      (None, 32, 32, 64)        0         
_________________________________________________________________
batch_normalization (BatchNo (None, 32, 32, 64)        256       
_________________________________________________________________
conv2d_1 (Conv2D)            (None, 32, 32, 64)        200768    
_________________________________________________________________
activation_1 (Activation)    (None, 32, 32, 64)        0         
_________________________________________________________________
batch_normalization_1 (Batch (None, 32, 32, 64)        256       
_________________________________________________________________
max_pooling2d (MaxPooling2D) (None, 16, 16, 64)        0         
_________________________________________________________________
conv2d_2 (Conv2D)            (None, 16, 16, 256)       803072    
_________________________________________________________________
activation_2 (Activation)    (None, 16, 16, 256)       0         
_________________________________________________________________
batch_normalization_2 (Batch (None, 16, 16, 256)       1024      
_________________________________________________________________
conv2d_3 (Conv2D)            (None, 16, 16, 256)       3211520   
_________________________________________________________________
activation_3 (Activation)    (None, 16, 16, 256)       0         
_________________________________________________________________
batch_normalization_3 (Batch (None, 16, 16, 256)       1024      
_________________________________________________________________
max_pooling2d_1 (MaxPooling2 (None, 8, 8, 256)         0         
_________________________________________________________________
conv2d_4 (Conv2D)            (None, 8, 8, 36)          230436    
_________________________________________________________________
activation_4 (Activation)    (None, 8, 8, 36)          0         
_________________________________________________________________
batch_normalization_4 (Batch (None, 8, 8, 36)          144       
_________________________________________________________________
max_pooling2d_2 (MaxPooling2 (None, 4, 4, 36)          0         
_________________________________________________________________
conv2d_5 (Conv2D)            (None, 4, 4, 64)          112960    
_________________________________________________________________
activation_5 (Activation)    (None, 4, 4, 64)          0         
_________________________________________________________________
batch_normalization_5 (Batch (None, 4, 4, 64)          256       
_________________________________________________________________
conv2d_6 (Conv2D)            (None, 4, 4, 64)          200768    
_________________________________________________________________
activation_6 (Activation)    (None, 4, 4, 64)          0         
_________________________________________________________________
batch_normalization_6 (Batch (None, 4, 4, 64)          256       
_________________________________________________________________
max_pooling2d_3 (MaxPooling2 (None, 2, 2, 64)          0         
_________________________________________________________________
conv2d_7 (Conv2D)            (None, 2, 2, 96)          55392     
_________________________________________________________________
activation_7 (Activation)    (None, 2, 2, 96)          0         
_________________________________________________________________
batch_normalization_7 (Batch (None, 2, 2, 96)          384       
_________________________________________________________________
flatten (Flatten)            (None, 384)               0         
_________________________________________________________________
dense (Dense)                (None, 2048)              788480    
_________________________________________________________________
activation_8 (Activation)    (None, 2048)              0         
_________________________________________________________________
dense_1 (Dense)              (None, 10)                20490     
_________________________________________________________________
activation_9 (Activation)    (None, 10)                0         
=================================================================
Total params: 5,636,958
Trainable params: 5,635,158
Non-trainable params: 1,800
_________________________________________________________________
Epoch 1/10
1562/1562 - 37s - loss: 1.5150 - accuracy: 0.4534 - val_loss: 1.3888 - val_accuracy: 0.5034
Epoch 2/10
1562/1562 - 36s - loss: 1.0701 - accuracy: 0.6183 - val_loss: 1.0369 - val_accuracy: 0.6437
…
[array([[100.385925]], dtype=float32), array([[119.49065]], dtype=float32), array([[119.49065]], dtype=float32), array([[213.03806]], dtype=float32), array([[284.71542]], dtype=float32), array([[284.71542]], dtype=float32), array([[368.58652]], dtype=float32), 401.408]
New Contested Point and Value: 
[array([2, 2, 1, 2, 1, 5]), [64.0, 7.0, 256.0, 7.0, 36.0, 5.0, 64.0, 7.0, 96.0, 3.0, 2048.0, 0.0]] [-17.77999997138977, -663.2238159179688, -100.38592529296875]
Model: "functional_1"
_________________________________________________________________
Layer (type)                 Output Shape              Param #   
=================================================================
input_1 (InputLayer)         [(None, 32, 32, 3)]       0         
_________________________________________________________________
conv2d (Conv2D)              (None, 32, 32, 24)        3552      
_________________________________________________________________
activation (Activation)      (None, 32, 32, 24)        0         
_________________________________________________________________
batch_normalization (BatchNo (None, 32, 32, 24)        96        
_________________________________________________________________
conv2d_1 (Conv2D)            (None, 32, 32, 64)        75328     
_________________________________________________________________
activation_1 (Activation)    (None, 32, 32, 64)        0         
_________________________________________________________________
batch_normalization_1 (Batch (None, 32, 32, 64)        256       
_________________________________________________________________
max_pooling2d (MaxPooling2D) (None, 16, 16, 64)        0         
_________________________________________________________________
conv2d_2 (Conv2D)            (None, 16, 16, 64)        200768    
_________________________________________________________________
activation_2 (Activation)    (None, 16, 16, 64)        0         
_________________________________________________________________
batch_normalization_2 (Batch (None, 16, 16, 64)        256       
_________________________________________________________________
max_pooling2d_1 (MaxPooling2 (None, 8, 8, 64)          0         
_________________________________________________________________
conv2d_3 (Conv2D)            (None, 8, 8, 36)          57636     
_________________________________________________________________
activation_3 (Activation)    (None, 8, 8, 36)          0         
_________________________________________________________________
batch_normalization_3 (Batch (None, 8, 8, 36)          144       
_________________________________________________________________
max_pooling2d_2 (MaxPooling2 (None, 4, 4, 36)          0         
_________________________________________________________________
conv2d_4 (Conv2D)            (None, 4, 4, 64)          57664     
_________________________________________________________________
activation_4 (Activation)    (None, 4, 4, 64)          0         
_________________________________________________________________
batch_normalization_4 (Batch (None, 4, 4, 64)          256       
_________________________________________________________________
max_pooling2d_3 (MaxPooling2 (None, 2, 2, 64)          0         
_________________________________________________________________
flatten (Flatten)            (None, 256)               0         
_________________________________________________________________
dense (Dense)                (None, 4096)              1052672   
_________________________________________________________________
activation_5 (Activation)    (None, 4096)              0         
_________________________________________________________________
dense_1 (Dense)              (None, 512)               2097664   
_________________________________________________________________
activation_6 (Activation)    (None, 512)               0         
_________________________________________________________________
dense_2 (Dense)              (None, 10)                5130      
_________________________________________________________________
activation_7 (Activation)    (None, 10)                0         
=================================================================
Total params: 3,551,422
Trainable params: 3,550,918
Non-trainable params: 504
_________________________________________________________________
Epoch 1/10
1562/1562 - 15s - loss: 1.4545 - accuracy: 0.4713 - val_loss: 1.3112 - val_accuracy: 0.5401
Epoch 2/10
1562/1562 - 15s - loss: 1.0544 - accuracy: 0.6247 - val_loss: 0.9805 - val_accuracy: 0.6574
…
[array([[65.41243]], dtype=float32), array([[68.15393]], dtype=float32), array([[99.960434]], dtype=float32), array([[178.76035]], dtype=float32), array([[340.04684]], dtype=float32), 401.408]
New Contested Point and Value: 
[array([1, 1, 1, 1, 1, 1]), [24.0, 7.0, 64.0, 7.0, 64.0, 7.0, 36.0, 5.0, 64.0, 5.0, 4096.0, 512.0]] [-19.830000400543213, -406.8121643066406, -65.41242980957031]
Model: "functional_1"
_________________________________________________________________
Layer (type)                 Output Shape              Param #   
=================================================================
input_1 (InputLayer)         [(None, 32, 32, 3)]       0         
_________________________________________________________________
conv2d (Conv2D)              (None, 32, 32, 256)       19456     
_________________________________________________________________
activation (Activation)      (None, 32, 32, 256)       0         
_________________________________________________________________
batch_normalization (BatchNo (None, 32, 32, 256)       1024      
_________________________________________________________________
conv2d_1 (Conv2D)            (None, 32, 32, 256)       1638656   
_________________________________________________________________
activation_1 (Activation)    (None, 32, 32, 256)       0         
_________________________________________________________________
batch_normalization_1 (Batch (None, 32, 32, 256)       1024      
_________________________________________________________________
max_pooling2d (MaxPooling2D) (None, 16, 16, 256)       0         
_________________________________________________________________
conv2d_2 (Conv2D)            (None, 16, 16, 96)        221280    
_________________________________________________________________
activation_2 (Activation)    (None, 16, 16, 96)        0         
_________________________________________________________________
batch_normalization_2 (Batch (None, 16, 16, 96)        384       
_________________________________________________________________
conv2d_3 (Conv2D)            (None, 16, 16, 96)        83040     
_________________________________________________________________
activation_3 (Activation)    (None, 16, 16, 96)        0         
_________________________________________________________________
batch_normalization_3 (Batch (None, 16, 16, 96)        384       
_________________________________________________________________
max_pooling2d_1 (MaxPooling2 (None, 8, 8, 96)          0         
_________________________________________________________________
conv2d_4 (Conv2D)            (None, 8, 8, 128)         602240    
_________________________________________________________________
activation_4 (Activation)    (None, 8, 8, 128)         0         
_________________________________________________________________
batch_normalization_4 (Batch (None, 8, 8, 128)         512       
_________________________________________________________________
max_pooling2d_2 (MaxPooling2 (None, 4, 4, 128)         0         
_________________________________________________________________
conv2d_5 (Conv2D)            (None, 4, 4, 64)          401472    
_________________________________________________________________
activation_5 (Activation)    (None, 4, 4, 64)          0         
_________________________________________________________________
batch_normalization_5 (Batch (None, 4, 4, 64)          256       
_________________________________________________________________
conv2d_6 (Conv2D)            (None, 4, 4, 64)          200768    
_________________________________________________________________
activation_6 (Activation)    (None, 4, 4, 64)          0         
_________________________________________________________________
batch_normalization_6 (Batch (None, 4, 4, 64)          256       
_________________________________________________________________
max_pooling2d_3 (MaxPooling2 (None, 2, 2, 64)          0         
_________________________________________________________________
conv2d_7 (Conv2D)            (None, 2, 2, 128)         401536    
_________________________________________________________________
activation_7 (Activation)    (None, 2, 2, 128)         0         
_________________________________________________________________
batch_normalization_7 (Batch (None, 2, 2, 128)         512       
_________________________________________________________________
conv2d_8 (Conv2D)            (None, 2, 2, 128)         802944    
_________________________________________________________________
activation_8 (Activation)    (None, 2, 2, 128)         0         
_________________________________________________________________
batch_normalization_8 (Batch (None, 2, 2, 128)         512       
_________________________________________________________________
flatten (Flatten)            (None, 512)               0         
_________________________________________________________________
dense (Dense)                (None, 2048)              1050624   
_________________________________________________________________
activation_9 (Activation)    (None, 2048)              0         
_________________________________________________________________
dense_1 (Dense)              (None, 512)               1049088   
_________________________________________________________________
activation_10 (Activation)   (None, 512)               0         
_________________________________________________________________
dense_2 (Dense)              (None, 10)                5130      
_________________________________________________________________
activation_11 (Activation)   (None, 10)                0         
=================================================================
Total params: 6,481,098
Trainable params: 6,478,666
Non-trainable params: 2,432
_________________________________________________________________
Epoch 1/10
1562/1562 - 34s - loss: 1.4753 - accuracy: 0.4622 - val_loss: 1.1879 - val_accuracy: 0.5789
Epoch 2/10
1562/1562 - 33s - loss: 1.0277 - accuracy: 0.6424 - val_loss: 0.9655 - val_accuracy: 0.6726
…
[array([[114.56826]], dtype=float32), array([[117.30976]], dtype=float32), array([[127.33191]], dtype=float32), array([[215.59334]], dtype=float32), array([[359.3072]], dtype=float32), array([[359.3072]], dtype=float32), 401.408]
New Contested Point and Value: 
[array([2, 2, 1, 2, 2, 5]), [256.0, 5.0, 96.0, 3.0, 128.0, 7.0, 64.0, 7.0, 128.0, 7.0, 2048.0, 512.0]] [-19.179999828338623, -773.4157104492188, -114.5682601928711]
Model: "functional_1"
_________________________________________________________________
Layer (type)                 Output Shape              Param #   
=================================================================
input_1 (InputLayer)         [(None, 32, 32, 3)]       0         
_________________________________________________________________
conv2d (Conv2D)              (None, 32, 32, 24)        3552      
_________________________________________________________________
activation (Activation)      (None, 32, 32, 24)        0         
_________________________________________________________________
batch_normalization (BatchNo (None, 32, 32, 24)        96        
_________________________________________________________________
conv2d_1 (Conv2D)            (None, 32, 32, 24)        28248     
_________________________________________________________________
activation_1 (Activation)    (None, 32, 32, 24)        0         
_________________________________________________________________
batch_normalization_1 (Batch (None, 32, 32, 24)        96        
_________________________________________________________________
conv2d_2 (Conv2D)            (None, 32, 32, 64)        13888     
_________________________________________________________________
activation_2 (Activation)    (None, 32, 32, 64)        0         
_________________________________________________________________
batch_normalization_2 (Batch (None, 32, 32, 64)        256       
_________________________________________________________________
max_pooling2d (MaxPooling2D) (None, 16, 16, 64)        0         
_________________________________________________________________
conv2d_3 (Conv2D)            (None, 16, 16, 24)        38424     
_________________________________________________________________
activation_3 (Activation)    (None, 16, 16, 24)        0         
_________________________________________________________________
batch_normalization_3 (Batch (None, 16, 16, 24)        96        
_________________________________________________________________
max_pooling2d_1 (MaxPooling2 (None, 8, 8, 24)          0         
_________________________________________________________________
conv2d_4 (Conv2D)            (None, 8, 8, 64)          13888     
_________________________________________________________________
activation_4 (Activation)    (None, 8, 8, 64)          0         
_________________________________________________________________
batch_normalization_4 (Batch (None, 8, 8, 64)          256       
_________________________________________________________________
max_pooling2d_2 (MaxPooling2 (None, 4, 4, 64)          0         
_________________________________________________________________
conv2d_5 (Conv2D)            (None, 4, 4, 256)         409856    
_________________________________________________________________
activation_5 (Activation)    (None, 4, 4, 256)         0         
_________________________________________________________________
batch_normalization_5 (Batch (None, 4, 4, 256)         1024      
_________________________________________________________________
conv2d_6 (Conv2D)            (None, 4, 4, 256)         1638656   
_________________________________________________________________
activation_6 (Activation)    (None, 4, 4, 256)         0         
_________________________________________________________________
batch_normalization_6 (Batch (None, 4, 4, 256)         1024      
_________________________________________________________________
max_pooling2d_3 (MaxPooling2 (None, 2, 2, 256)         0         
_________________________________________________________________
flatten (Flatten)            (None, 1024)              0         
_________________________________________________________________
dense (Dense)                (None, 4096)              4198400   
_________________________________________________________________
activation_7 (Activation)    (None, 4096)              0         
_________________________________________________________________
dense_1 (Dense)              (None, 4096)              16781312  
_________________________________________________________________
activation_8 (Activation)    (None, 4096)              0         
_________________________________________________________________
dense_2 (Dense)              (None, 10)                40970     
_________________________________________________________________
activation_9 (Activation)    (None, 10)                0         
=================================================================
Total params: 23,170,042
Trainable params: 23,168,618
Non-trainable params: 1,424
_________________________________________________________________
Epoch 1/10
1562/1562 - 16s - loss: 1.5440 - accuracy: 0.4481 - val_loss: 1.3537 - val_accuracy: 0.5166
Epoch 2/10
1562/1562 - 16s - loss: 1.1055 - accuracy: 0.6089 - val_loss: 0.9964 - val_accuracy: 0.6511
…
Capital spent on initialisation: 23.0000(0.0767).
Legend: <iteration_number> (<num_successful_queries>, <fraction_of_capital_spent>):: #Pareto=<num_pareto_optimal_points_found>
#024 (023, 0.077):: #Pareto: 5, 
Model: "functional_1"
_________________________________________________________________
Layer (type)                 Output Shape              Param #   
=================================================================
input_1 (InputLayer)         [(None, 32, 32, 3)]       0         
_________________________________________________________________
conv2d (Conv2D)              (None, 32, 32, 128)       9728      
_________________________________________________________________
activation (Activation)      (None, 32, 32, 128)       0         
_________________________________________________________________
batch_normalization (BatchNo (None, 32, 32, 128)       512       
_________________________________________________________________
conv2d_1 (Conv2D)            (None, 32, 32, 128)       409728    
_________________________________________________________________
activation_1 (Activation)    (None, 32, 32, 128)       0         
_________________________________________________________________
batch_normalization_1 (Batch (None, 32, 32, 128)       512       
_________________________________________________________________
max_pooling2d (MaxPooling2D) (None, 16, 16, 128)       0         
_________________________________________________________________
conv2d_2 (Conv2D)            (None, 16, 16, 64)        204864    
_________________________________________________________________
activation_2 (Activation)    (None, 16, 16, 64)        0         
_________________________________________________________________
batch_normalization_2 (Batch (None, 16, 16, 64)        256       
_________________________________________________________________
max_pooling2d_1 (MaxPooling2 (None, 8, 8, 64)          0         
_________________________________________________________________
conv2d_3 (Conv2D)            (None, 8, 8, 96)          55392     
_________________________________________________________________
activation_3 (Activation)    (None, 8, 8, 96)          0         
_________________________________________________________________
batch_normalization_3 (Batch (None, 8, 8, 96)          384       
_________________________________________________________________
conv2d_4 (Conv2D)            (None, 8, 8, 36)          169380    
_________________________________________________________________
activation_4 (Activation)    (None, 8, 8, 36)          0         
_________________________________________________________________
batch_normalization_4 (Batch (None, 8, 8, 36)          144       
_________________________________________________________________
conv2d_5 (Conv2D)            (None, 8, 8, 36)          63540     
_________________________________________________________________
activation_5 (Activation)    (None, 8, 8, 36)          0         
_________________________________________________________________
batch_normalization_5 (Batch (None, 8, 8, 36)          144       
_________________________________________________________________
max_pooling2d_2 (MaxPooling2 (None, 4, 4, 36)          0         
_________________________________________________________________
conv2d_6 (Conv2D)            (None, 4, 4, 128)         225920    
_________________________________________________________________
activation_6 (Activation)    (None, 4, 4, 128)         0         
_________________________________________________________________
batch_normalization_6 (Batch (None, 4, 4, 128)         512       
_________________________________________________________________
conv2d_7 (Conv2D)            (None, 4, 4, 128)         802944    
_________________________________________________________________
activation_7 (Activation)    (None, 4, 4, 128)         0         
_________________________________________________________________
batch_normalization_7 (Batch (None, 4, 4, 128)         512       
_________________________________________________________________
max_pooling2d_3 (MaxPooling2 (None, 2, 2, 128)         0         
_________________________________________________________________
flatten (Flatten)            (None, 512)               0         
_________________________________________________________________
dense (Dense)                (None, 512)               262656    
_________________________________________________________________
activation_8 (Activation)    (None, 512)               0         
_________________________________________________________________
dense_1 (Dense)              (None, 256)               131328    
_________________________________________________________________
activation_9 (Activation)    (None, 256)               0         
_________________________________________________________________
dense_2 (Dense)              (None, 10)                2570      
_________________________________________________________________
activation_10 (Activation)   (None, 10)                0         
=================================================================
Total params: 2,341,026
Trainable params: 2,339,538
Non-trainable params: 1,488
_________________________________________________________________
Epoch 1/10
1562/1562 - 17s - loss: 1.5942 - accuracy: 0.4170 - val_loss: 1.3163 - val_accuracy: 0.5406
Epoch 2/10
1562/1562 - 18s - loss: 1.1551 - accuracy: 0.5931 - val_loss: 1.2739 - val_accuracy: 0.5772
…
#025 (023, 0.077):: #Pareto: 5, 
New Contested Point and Value: 
[array([2, 1, 1, 2, 2, 3]), [128.0, 5.0, 64.0, 5.0, 96.0, 3.0, 36.0, 7.0, 128.0, 7.0, 512.0, 256.0]] [-19.220000505447388, -490.1297607421875, -80.92704772949219]
Model: "functional_1"
_________________________________________________________________
Layer (type)                 Output Shape              Param #   
=================================================================
input_1 (InputLayer)         [(None, 32, 32, 3)]       0         
_________________________________________________________________
conv2d (Conv2D)              (None, 32, 32, 24)        672       
_________________________________________________________________
activation (Activation)      (None, 32, 32, 24)        0         
_________________________________________________________________
batch_normalization (BatchNo (None, 32, 32, 24)        96        
_________________________________________________________________
max_pooling2d (MaxPooling2D) (None, 16, 16, 24)        0         
_________________________________________________________________
conv2d_1 (Conv2D)            (None, 16, 16, 96)        57696     
_________________________________________________________________
activation_1 (Activation)    (None, 16, 16, 96)        0         
_________________________________________________________________
batch_normalization_1 (Batch (None, 16, 16, 96)        384       
_________________________________________________________________
conv2d_2 (Conv2D)            (None, 16, 16, 96)        230496    
_________________________________________________________________
activation_2 (Activation)    (None, 16, 16, 96)        0         
_________________________________________________________________
batch_normalization_2 (Batch (None, 16, 16, 96)        384       
_________________________________________________________________
conv2d_3 (Conv2D)            (None, 16, 16, 36)        31140     
_________________________________________________________________
activation_3 (Activation)    (None, 16, 16, 36)        0         
_________________________________________________________________
batch_normalization_3 (Batch (None, 16, 16, 36)        144       
_________________________________________________________________
conv2d_4 (Conv2D)            (None, 16, 16, 36)        11700     
_________________________________________________________________
activation_4 (Activation)    (None, 16, 16, 36)        0         
_________________________________________________________________
batch_normalization_4 (Batch (None, 16, 16, 36)        144       
_________________________________________________________________
max_pooling2d_1 (MaxPooling2 (None, 8, 8, 36)          0         
_________________________________________________________________
conv2d_5 (Conv2D)            (None, 8, 8, 128)         41600     
_________________________________________________________________
activation_5 (Activation)    (None, 8, 8, 128)         0         
_________________________________________________________________
batch_normalization_5 (Batch (None, 8, 8, 128)         512       
_________________________________________________________________
conv2d_6 (Conv2D)            (None, 8, 8, 128)         147584    
_________________________________________________________________
activation_6 (Activation)    (None, 8, 8, 128)         0         
_________________________________________________________________
batch_normalization_6 (Batch (None, 8, 8, 128)         512       
_________________________________________________________________
max_pooling2d_2 (MaxPooling2 (None, 4, 4, 128)         0         
_________________________________________________________________
conv2d_7 (Conv2D)            (None, 4, 4, 24)          76824     
_________________________________________________________________
activation_7 (Activation)    (None, 4, 4, 24)          0         
_________________________________________________________________
batch_normalization_7 (Batch (None, 4, 4, 24)          96        
_________________________________________________________________
conv2d_8 (Conv2D)            (None, 4, 4, 24)          14424     
_________________________________________________________________
activation_8 (Activation)    (None, 4, 4, 24)          0         
_________________________________________________________________
batch_normalization_8 (Batch (None, 4, 4, 24)          96        
_________________________________________________________________
max_pooling2d_3 (MaxPooling2 (None, 2, 2, 24)          0         
_________________________________________________________________
flatten (Flatten)            (None, 96)                0         
_________________________________________________________________
dense (Dense)                (None, 2048)              198656    
_________________________________________________________________
activation_9 (Activation)    (None, 2048)              0         
_________________________________________________________________
dense_1 (Dense)              (None, 2048)              4196352   
_________________________________________________________________
activation_10 (Activation)   (None, 2048)              0         
_________________________________________________________________
dense_2 (Dense)              (None, 10)                20490     
_________________________________________________________________
activation_11 (Activation)   (None, 10)                0         
=================================================================
Total params: 5,030,002
Trainable params: 5,028,818
Non-trainable params: 1,184
_________________________________________________________________
Epoch 1/10
1562/1562 - 15s - loss: 1.4921 - accuracy: 0.4550 - val_loss: 1.3014 - val_accuracy: 0.5331
Epoch 2/10
1562/1562 - 15s - loss: 1.1553 - accuracy: 0.5884 - val_loss: 1.1748 - val_accuracy: 0.6046
…
#026 (024, 0.080):: #Pareto: 5, 
New Contested Point and Value: 
[array([1, 2, 2, 2, 2, 2]), [24.0, 3.0, 96.0, 5.0, 36.0, 3.0, 128.0, 3.0, 24.0, 5.0, 2048.0, 2048.0]] [-21.649998426437378, -536.8906860351562, -89.09700012207031]
Model: "functional_1"
_________________________________________________________________
Layer (type)                 Output Shape              Param #   
=================================================================
input_1 (InputLayer)         [(None, 32, 32, 3)]       0         
_________________________________________________________________
conv2d (Conv2D)              (None, 32, 32, 36)        5328      
_________________________________________________________________
activation (Activation)      (None, 32, 32, 36)        0         
_________________________________________________________________
batch_normalization (BatchNo (None, 32, 32, 36)        144       
_________________________________________________________________
conv2d_1 (Conv2D)            (None, 32, 32, 36)        63540     
_________________________________________________________________
activation_1 (Activation)    (None, 32, 32, 36)        0         
_________________________________________________________________
batch_normalization_1 (Batch (None, 32, 32, 36)        144       
_________________________________________________________________
max_pooling2d (MaxPooling2D) (None, 16, 16, 36)        0         
_________________________________________________________________
conv2d_2 (Conv2D)            (None, 16, 16, 96)        31200     
_________________________________________________________________
activation_2 (Activation)    (None, 16, 16, 96)        0         
_________________________________________________________________
batch_normalization_2 (Batch (None, 16, 16, 96)        384       
_________________________________________________________________
max_pooling2d_1 (MaxPooling2 (None, 8, 8, 96)          0         
_________________________________________________________________
conv2d_3 (Conv2D)            (None, 8, 8, 36)          169380    
_________________________________________________________________
activation_3 (Activation)    (None, 8, 8, 36)          0         
_________________________________________________________________
batch_normalization_3 (Batch (None, 8, 8, 36)          144       
_________________________________________________________________
max_pooling2d_2 (MaxPooling2 (None, 4, 4, 36)          0         
_________________________________________________________________
conv2d_4 (Conv2D)            (None, 4, 4, 24)          42360     
_________________________________________________________________
activation_4 (Activation)    (None, 4, 4, 24)          0         
_________________________________________________________________
batch_normalization_4 (Batch (None, 4, 4, 24)          96        
_________________________________________________________________
max_pooling2d_3 (MaxPooling2 (None, 2, 2, 24)          0         
_________________________________________________________________
conv2d_5 (Conv2D)            (None, 2, 2, 256)         301312    
_________________________________________________________________
activation_5 (Activation)    (None, 2, 2, 256)         0         
_________________________________________________________________
batch_normalization_5 (Batch (None, 2, 2, 256)         1024      
_________________________________________________________________
flatten (Flatten)            (None, 1024)              0         
_________________________________________________________________
dense (Dense)                (None, 256)               262400    
_________________________________________________________________
activation_6 (Activation)    (None, 256)               0         
_________________________________________________________________
dense_1 (Dense)              (None, 4096)              1052672   
_________________________________________________________________
activation_7 (Activation)    (None, 4096)              0         
_________________________________________________________________
dense_2 (Dense)              (None, 10)                40970     
_________________________________________________________________
activation_8 (Activation)    (None, 10)                0         
=================================================================
Total params: 1,971,098
Trainable params: 1,970,130
Non-trainable params: 968
_________________________________________________________________
Epoch 1/10
1562/1562 - 15s - loss: 1.8432 - accuracy: 0.3180 - val_loss: 1.6375 - val_accuracy: 0.3907
Epoch 2/10
1562/1562 - 14s - loss: 1.4373 - accuracy: 0.4757 - val_loss: 1.2953 - val_accuracy: 0.5412
…
#027 (025, 0.083):: #Pareto: 5, 
New Contested Point and Value: 
[array([2, 1, 1, 1, 1, 5]), [36.0, 7.0, 96.0, 3.0, 36.0, 7.0, 24.0, 7.0, 256.0, 7.0, 256.0, 4096.0]] [-33.63000154495239, -377.96405029296875, -63.821319580078125]
Model: "functional_1"
_________________________________________________________________
Layer (type)                 Output Shape              Param #   
=================================================================
input_1 (InputLayer)         [(None, 32, 32, 3)]       0         
_________________________________________________________________
conv2d (Conv2D)              (None, 32, 32, 24)        3552      
_________________________________________________________________
activation (Activation)      (None, 32, 32, 24)        0         
_________________________________________________________________
batch_normalization (BatchNo (None, 32, 32, 24)        96        
_________________________________________________________________
max_pooling2d (MaxPooling2D) (None, 16, 16, 24)        0         
_________________________________________________________________
conv2d_1 (Conv2D)            (None, 16, 16, 128)       27776     
_________________________________________________________________
activation_1 (Activation)    (None, 16, 16, 128)       0         
_________________________________________________________________
batch_normalization_1 (Batch (None, 16, 16, 128)       512       
_________________________________________________________________
max_pooling2d_1 (MaxPooling2 (None, 8, 8, 128)         0         
_________________________________________________________________
conv2d_2 (Conv2D)            (None, 8, 8, 64)          204864    
_________________________________________________________________
activation_2 (Activation)    (None, 8, 8, 64)          0         
_________________________________________________________________
batch_normalization_2 (Batch (None, 8, 8, 64)          256       
_________________________________________________________________
max_pooling2d_2 (MaxPooling2 (None, 4, 4, 64)          0         
_________________________________________________________________
conv2d_3 (Conv2D)            (None, 4, 4, 24)          13848     
_________________________________________________________________
activation_3 (Activation)    (None, 4, 4, 24)          0         
_________________________________________________________________
batch_normalization_3 (Batch (None, 4, 4, 24)          96        
_________________________________________________________________
conv2d_4 (Conv2D)            (None, 4, 4, 24)          5208      
_________________________________________________________________
activation_4 (Activation)    (None, 4, 4, 24)          0         
_________________________________________________________________
batch_normalization_4 (Batch (None, 4, 4, 24)          96        
_________________________________________________________________
max_pooling2d_3 (MaxPooling2 (None, 2, 2, 24)          0         
_________________________________________________________________
conv2d_5 (Conv2D)            (None, 2, 2, 64)          38464     
_________________________________________________________________
activation_5 (Activation)    (None, 2, 2, 64)          0         
_________________________________________________________________
batch_normalization_5 (Batch (None, 2, 2, 64)          256       
_________________________________________________________________
flatten (Flatten)            (None, 256)               0         
_________________________________________________________________
dense (Dense)                (None, 512)               131584    
_________________________________________________________________
activation_6 (Activation)    (None, 512)               0         
_________________________________________________________________
dense_1 (Dense)              (None, 8192)              4202496   
_________________________________________________________________
activation_7 (Activation)    (None, 8192)              0         
_________________________________________________________________
dense_2 (Dense)              (None, 10)                81930     
_________________________________________________________________
activation_8 (Activation)    (None, 10)                0         
=================================================================
Total params: 4,711,034
Trainable params: 4,710,378
Non-trainable params: 656
_________________________________________________________________
Epoch 1/10
1562/1562 - 15s - loss: 1.6681 - accuracy: 0.3993 - val_loss: 1.4265 - val_accuracy: 0.4801
Epoch 2/10
1562/1562 - 15s - loss: 1.2906 - accuracy: 0.5390 - val_loss: 1.3000 - val_accuracy: 0.5645
…
#028 (026, 0.087):: #Pareto: 5, 
New Contested Point and Value: 
[array([1, 1, 1, 2, 1, 5]), [24.0, 7.0, 128.0, 3.0, 64.0, 5.0, 24.0, 3.0, 64.0, 5.0, 512.0, 8192.0]] [-30.559998750686646, -321.1017150878906, -55.48069763183594]
Model: "functional_1"
_________________________________________________________________
Layer (type)                 Output Shape              Param #   
=================================================================
input_1 (InputLayer)         [(None, 32, 32, 3)]       0         
_________________________________________________________________
conv2d (Conv2D)              (None, 32, 32, 96)        2688      
_________________________________________________________________
activation (Activation)      (None, 32, 32, 96)        0         
…
conv2d_6 (Conv2D)            (None, 4, 4, 64)          36928     
_________________________________________________________________
activation_6 (Activation)    (None, 4, 4, 64)          0         
_________________________________________________________________
batch_normalization_6 (Batch (None, 4, 4, 64)          256       
_________________________________________________________________
conv2d_7 (Conv2D)            (None, 4, 4, 64)          200768    
_________________________________________________________________
activation_7 (Activation)    (None, 4, 4, 64)          0         
_________________________________________________________________
batch_normalization_7 (Batch (None, 4, 4, 64)          256       
_________________________________________________________________
max_pooling2d_3 (MaxPooling2 (None, 2, 2, 64)          0         
_________________________________________________________________
flatten (Flatten)            (None, 256)               0         
_________________________________________________________________
dense (Dense)                (None, 8192)              2105344   
_________________________________________________________________
activation_8 (Activation)    (None, 8192)              0         
_________________________________________________________________
dense_1 (Dense)              (None, 8192)              67117056  
_________________________________________________________________
activation_9 (Activation)    (None, 8192)              0         
_________________________________________________________________
dense_2 (Dense)              (None, 10)                81930     
_________________________________________________________________
activation_10 (Activation)   (None, 10)                0         
=================================================================
Total params: 70,315,522
Trainable params: 70,314,482
Non-trainable params: 1,040
_________________________________________________________________
Epoch 1/10
1562/1562 - 24s - loss: 1.4950 - accuracy: 0.4579 - val_loss: 1.2578 - val_accuracy: 0.5563
Epoch 2/10
1562/1562 - 23s - loss: 1.1226 - accuracy: 0.6049 - val_loss: 1.6352 - val_accuracy: 0.4843
…
#053 (051, 0.170):: #Pareto: 7, 
New Contested Point and Value: 
[array([1, 2, 2, 2, 1, 4]), [64.0, 5.0, 36.0, 5.0, 96.0, 7.0, 64.0, 3.0, 64.0, 7.0, 8192.0, 8192.0]] [-27.939999103546143, -440.3349914550781, -71.34811401367188]
Model: "functional_1"
_________________________________________________________________
Layer (type)                 Output Shape              Param #   
=================================================================
input_1 (InputLayer)         [(None, 32, 32, 3)]       0         
_________________________________________________________________
conv2d (Conv2D)              (None, 32, 32, 64)        9472      
_________________________________________________________________
activation (Activation)      (None, 32, 32, 64)        0         
_________________________________________________________________
batch_normalization (BatchNo (None, 32, 32, 64)        256       
_________________________________________________________________
conv2d_1 (Conv2D)            (None, 32, 32, 64)        200768    
_________________________________________________________________
activation_1 (Activation)    (None, 32, 32, 64)        0         
_________________________________________________________________
batch_normalization_1 (Batch (None, 32, 32, 64)        256       
_________________________________________________________________
max_pooling2d (MaxPooling2D) (None, 16, 16, 64)        0         
_________________________________________________________________
conv2d_2 (Conv2D)            (None, 16, 16, 96)        153696    
_________________________________________________________________
activation_2 (Activation)    (None, 16, 16, 96)        0         
_________________________________________________________________
batch_normalization_2 (Batch (None, 16, 16, 96)        384       
_________________________________________________________________
conv2d_3 (Conv2D)            (None, 16, 16, 128)       602240    
_________________________________________________________________
activation_3 (Activation)    (None, 16, 16, 128)       0         
_________________________________________________________________
batch_normalization_3 (Batch (None, 16, 16, 128)       512       
_________________________________________________________________
conv2d_4 (Conv2D)            (None, 16, 16, 128)       802944    
_________________________________________________________________
activation_4 (Activation)    (None, 16, 16, 128)       0         
_________________________________________________________________
batch_normalization_4 (Batch (None, 16, 16, 128)       512       
_________________________________________________________________
max_pooling2d_1 (MaxPooling2 (None, 8, 8, 128)         0         
_________________________________________________________________
conv2d_5 (Conv2D)            (None, 8, 8, 24)          27672     
_________________________________________________________________
activation_5 (Activation)    (None, 8, 8, 24)          0         
_________________________________________________________________
batch_normalization_5 (Batch (None, 8, 8, 24)          96        
_________________________________________________________________
conv2d_6 (Conv2D)            (None, 8, 8, 24)          5208      
_________________________________________________________________
activation_6 (Activation)    (None, 8, 8, 24)          0         
_________________________________________________________________
batch_normalization_6 (Batch (None, 8, 8, 24)          96        
_________________________________________________________________
max_pooling2d_2 (MaxPooling2 (None, 4, 4, 24)          0         
_________________________________________________________________
conv2d_7 (Conv2D)            (None, 4, 4, 64)          13888     
_________________________________________________________________
activation_7 (Activation)    (None, 4, 4, 64)          0         
_________________________________________________________________
batch_normalization_7 (Batch (None, 4, 4, 64)          256       
_________________________________________________________________
conv2d_8 (Conv2D)            (None, 4, 4, 64)          36928     
_________________________________________________________________
activation_8 (Activation)    (None, 4, 4, 64)          0         
_________________________________________________________________
batch_normalization_8 (Batch (None, 4, 4, 64)          256       
_________________________________________________________________
max_pooling2d_3 (MaxPooling2 (None, 2, 2, 64)          0         
_________________________________________________________________
flatten (Flatten)            (None, 256)               0         
_________________________________________________________________
dense (Dense)                (None, 256)               65792     
_________________________________________________________________
activation_9 (Activation)    (None, 256)               0         
_________________________________________________________________
dense_1 (Dense)              (None, 10)                2570      
_________________________________________________________________
activation_10 (Activation)   (None, 10)                0         
=================================================================
Total params: 1,923,802
Trainable params: 1,922,490
Non-trainable params: 1,312
_________________________________________________________________
Epoch 1/10
1562/1562 - 24s - loss: 1.6648 - accuracy: 0.3905 - val_loss: 1.6042 - val_accuracy: 0.4288
Epoch 2/10
1562/1562 - 24s - loss: 1.2812 - accuracy: 0.5359 - val_loss: 1.1551 - val_accuracy: 0.5868
…
#054 (052, 0.173):: #Pareto: 7, 
New Contested Point and Value: 
[array([2, 1, 2, 2, 2, 2]), [64.0, 7.0, 96.0, 5.0, 128.0, 7.0, 24.0, 3.0, 64.0, 3.0, 256.0, 0.0]] [-19.15000081062317, -595.5308227539062, -93.85863494873047]
Model: "functional_1"
_________________________________________________________________
Layer (type)                 Output Shape              Param #   
=================================================================
input_1 (InputLayer)         [(None, 32, 32, 3)]       0         
_________________________________________________________________
conv2d (Conv2D)              (None, 32, 32, 24)        672       
_________________________________________________________________
activation (Activation)      (None, 32, 32, 24)        0         
_________________________________________________________________
batch_normalization (BatchNo (None, 32, 32, 24)        96        
_________________________________________________________________
conv2d_1 (Conv2D)            (None, 32, 32, 24)        5208      
_________________________________________________________________
activation_1 (Activation)    (None, 32, 32, 24)        0         
_________________________________________________________________
batch_normalization_1 (Batch (None, 32, 32, 24)        96        
_________________________________________________________________
max_pooling2d (MaxPooling2D) (None, 16, 16, 24)        0         
_________________________________________________________________
conv2d_2 (Conv2D)            (None, 16, 16, 256)       153856    
_________________________________________________________________
activation_2 (Activation)    (None, 16, 16, 256)       0         
_________________________________________________________________
batch_normalization_2 (Batch (None, 16, 16, 256)       1024      
_________________________________________________________________
conv2d_3 (Conv2D)            (None, 16, 16, 256)       1638656   
_________________________________________________________________
activation_3 (Activation)    (None, 16, 16, 256)       0         
_________________________________________________________________
batch_normalization_3 (Batch (None, 16, 16, 256)       1024      
_________________________________________________________________
max_pooling2d_1 (MaxPooling2 (None, 8, 8, 256)         0         
_________________________________________________________________
conv2d_4 (Conv2D)            (None, 8, 8, 36)          451620    
_________________________________________________________________
activation_4 (Activation)    (None, 8, 8, 36)          0         
_________________________________________________________________
batch_normalization_4 (Batch (None, 8, 8, 36)          144       
_________________________________________________________________
conv2d_5 (Conv2D)            (None, 8, 8, 36)          63540     
_________________________________________________________________
activation_5 (Activation)    (None, 8, 8, 36)          0         
_________________________________________________________________
batch_normalization_5 (Batch (None, 8, 8, 36)          144       
_________________________________________________________________
max_pooling2d_2 (MaxPooling2 (None, 4, 4, 36)          0         
_________________________________________________________________
conv2d_6 (Conv2D)            (None, 4, 4, 24)          7800      
_________________________________________________________________
activation_6 (Activation)    (None, 4, 4, 24)          0         
_________________________________________________________________
batch_normalization_6 (Batch (None, 4, 4, 24)          96        
_________________________________________________________________
conv2d_7 (Conv2D)            (None, 4, 4, 24)          5208      
_________________________________________________________________
activation_7 (Activation)    (None, 4, 4, 24)          0         
_________________________________________________________________
batch_normalization_7 (Batch (None, 4, 4, 24)          96        
_________________________________________________________________
max_pooling2d_3 (MaxPooling2 (None, 2, 2, 24)          0         
_________________________________________________________________
conv2d_8 (Conv2D)            (None, 2, 2, 96)          20832     
_________________________________________________________________
activation_8 (Activation)    (None, 2, 2, 96)          0         
_________________________________________________________________
batch_normalization_8 (Batch (None, 2, 2, 96)          384       
_________________________________________________________________
conv2d_9 (Conv2D)            (None, 2, 2, 96)          83040     
_________________________________________________________________
activation_9 (Activation)    (None, 2, 2, 96)          0         
_________________________________________________________________
batch_normalization_9 (Batch (None, 2, 2, 96)          384       
_________________________________________________________________
flatten (Flatten)            (None, 384)               0         
_________________________________________________________________
dense (Dense)                (None, 256)               98560     
_________________________________________________________________
activation_10 (Activation)   (None, 256)               0         
_________________________________________________________________
dense_1 (Dense)              (None, 256)               65792     
_________________________________________________________________
activation_11 (Activation)   (None, 256)               0         
_________________________________________________________________
dense_2 (Dense)              (None, 10)                2570      
_________________________________________________________________
activation_12 (Activation)   (None, 10)                0         
=================================================================
Total params: 2,600,842
Trainable params: 2,599,098
Non-trainable params: 1,744
_________________________________________________________________
Epoch 1/10
1562/1562 - 18s - loss: 1.5327 - accuracy: 0.4393 - val_loss: 1.3688 - val_accuracy: 0.5091
Epoch 2/10
1562/1562 - 17s - loss: 1.1110 - accuracy: 0.6085 - val_loss: 0.9896 - val_accuracy: 0.6622
…
#055 (053, 0.177):: #Pareto: 7, 
New Contested Point and Value: 
[array([2, 2, 2, 2, 2, 5]), [24.0, 3.0, 256.0, 5.0, 36.0, 7.0, 24.0, 3.0, 96.0, 3.0, 256.0, 256.0]] [-22.189998626708984, -495.17230224609375, -84.37976837158203]
Model: "functional_1"
_________________________________________________________________
Layer (type)                 Output Shape              Param #   
=================================================================
input_1 (InputLayer)         [(None, 32, 32, 3)]       0         
_________________________________________________________________
conv2d (Conv2D)              (None, 32, 32, 24)        672       
_________________________________________________________________
activation (Activation)      (None, 32, 32, 24)        0         
_________________________________________________________________
batch_normalization (BatchNo (None, 32, 32, 24)        96        
_________________________________________________________________
max_pooling2d (MaxPooling2D) (None, 16, 16, 24)        0         
_________________________________________________________________
conv2d_1 (Conv2D)            (None, 16, 16, 24)        5208      
_________________________________________________________________
activation_1 (Activation)    (None, 16, 16, 24)        0         
_________________________________________________________________
batch_normalization_1 (Batch (None, 16, 16, 24)        96        
_________________________________________________________________
max_pooling2d_1 (MaxPooling2 (None, 8, 8, 24)          0         
_________________________________________________________________
conv2d_2 (Conv2D)            (None, 8, 8, 96)          20832     
_________________________________________________________________
activation_2 (Activation)    (None, 8, 8, 96)          0         
_________________________________________________________________
batch_normalization_2 (Batch (None, 8, 8, 96)          384       
_________________________________________________________________
max_pooling2d_2 (MaxPooling2 (None, 4, 4, 96)          0         
_________________________________________________________________
conv2d_3 (Conv2D)            (None, 4, 4, 96)          230496    
_________________________________________________________________
activation_3 (Activation)    (None, 4, 4, 96)          0         
_________________________________________________________________
batch_normalization_3 (Batch (None, 4, 4, 96)          384       
_________________________________________________________________
conv2d_4 (Conv2D)            (None, 4, 4, 96)          230496    
_________________________________________________________________
activation_4 (Activation)    (None, 4, 4, 96)          0         
_________________________________________________________________
batch_normalization_4 (Batch (None, 4, 4, 96)          384       
_________________________________________________________________
conv2d_5 (Conv2D)            (None, 4, 4, 36)          169380    
_________________________________________________________________
activation_5 (Activation)    (None, 4, 4, 36)          0         
_________________________________________________________________
batch_normalization_5 (Batch (None, 4, 4, 36)          144       
_________________________________________________________________
max_pooling2d_3 (MaxPooling2 (None, 2, 2, 36)          0         
_________________________________________________________________
flatten (Flatten)            (None, 144)               0         
_________________________________________________________________
dense (Dense)                (None, 256)               37120     
_________________________________________________________________
activation_6 (Activation)    (None, 256)               0         
_________________________________________________________________
dense_1 (Dense)              (None, 10)                2570      
_________________________________________________________________
activation_7 (Activation)    (None, 10)                0         
=================================================================
Total params: 698,262
Trainable params: 697,518
Non-trainable params: 744
_________________________________________________________________
Epoch 1/10
1562/1562 - 17s - loss: 1.4365 - accuracy: 0.4801 - val_loss: 1.3134 - val_accuracy: 0.5353
Epoch 2/10
1562/1562 - 17s - loss: 1.1013 - accuracy: 0.6093 - val_loss: 1.4000 - val_accuracy: 0.5417
…
#056 (054, 0.180):: #Pareto: 7, 
New Contested Point and Value: 
[array([1, 1, 1, 2, 1, 4]), [24.0, 3.0, 24.0, 3.0, 96.0, 3.0, 96.0, 5.0, 36.0, 7.0, 256.0, 0.0]] [-22.460001707077026, -240.14434814453125, -44.89141845703125]
Model: "functional_1"
_________________________________________________________________
Layer (type)                 Output Shape              Param #   
=================================================================
input_1 (InputLayer)         [(None, 32, 32, 3)]       0         
_________________________________________________________________
conv2d (Conv2D)              (None, 32, 32, 24)        3552      
_________________________________________________________________
activation (Activation)      (None, 32, 32, 24)        0         
_________________________________________________________________
batch_normalization (BatchNo (None, 32, 32, 24)        96        
_________________________________________________________________
conv2d_1 (Conv2D)            (None, 32, 32, 24)        28248     
_________________________________________________________________
activation_1 (Activation)    (None, 32, 32, 24)        0         
_________________________________________________________________
batch_normalization_1 (Batch (None, 32, 32, 24)        96        
_________________________________________________________________
max_pooling2d (MaxPooling2D) (None, 16, 16, 24)        0         
_________________________________________________________________
conv2d_2 (Conv2D)            (None, 16, 16, 128)       150656    
_________________________________________________________________
activation_2 (Activation)    (None, 16, 16, 128)       0         
_________________________________________________________________
batch_normalization_2 (Batch (None, 16, 16, 128)       512       
_________________________________________________________________
conv2d_3 (Conv2D)            (None, 16, 16, 36)        115236    
_________________________________________________________________
activation_3 (Activation)    (None, 16, 16, 36)        0         
_________________________________________________________________
batch_normalization_3 (Batch (None, 16, 16, 36)        144       
_________________________________________________________________
max_pooling2d_1 (MaxPooling2 (None, 8, 8, 36)          0         
_________________________________________________________________
conv2d_4 (Conv2D)            (None, 8, 8, 36)          32436     
_________________________________________________________________
activation_4 (Activation)    (None, 8, 8, 36)          0         
_________________________________________________________________
batch_normalization_4 (Batch (None, 8, 8, 36)          144       
_________________________________________________________________
max_pooling2d_2 (MaxPooling2 (None, 4, 4, 36)          0         
_________________________________________________________________
conv2d_5 (Conv2D)            (None, 4, 4, 128)         115328    
_________________________________________________________________
activation_5 (Activation)    (None, 4, 4, 128)         0         
_________________________________________________________________
batch_normalization_5 (Batch (None, 4, 4, 128)         512       
_________________________________________________________________
max_pooling2d_3 (MaxPooling2 (None, 2, 2, 128)         0         
_________________________________________________________________
flatten (Flatten)            (None, 512)               0         
_________________________________________________________________
dense (Dense)                (None, 2048)              1050624   
_________________________________________________________________
activation_6 (Activation)    (None, 2048)              0         
_________________________________________________________________
dense_1 (Dense)              (None, 256)               524544    
_________________________________________________________________
activation_7 (Activation)    (None, 256)               0         
_________________________________________________________________
dense_2 (Dense)              (None, 10)                2570      
_________________________________________________________________
activation_8 (Activation)    (None, 10)                0         
=================================================================
Total params: 2,024,698
Trainable params: 2,023,946
Non-trainable params: 752
_________________________________________________________________
Epoch 1/10
1562/1562 - 15s - loss: 1.5218 - accuracy: 0.4453 - val_loss: 1.4208 - val_accuracy: 0.5008
Epoch 2/10
1562/1562 - 15s - loss: 1.1085 - accuracy: 0.6086 - val_loss: 0.9755 - val_accuracy: 0.6513
…
#057 (055, 0.183):: #Pareto: 7, 
New Contested Point and Value: 
[array([2, 1, 1, 1, 1, 2]), [24.0, 7.0, 128.0, 7.0, 36.0, 5.0, 36.0, 5.0, 128.0, 5.0, 2048.0, 256.0]] [-24.299997091293335, -398.86492919921875, -66.0482406616211]
Model: "functional_1"
_________________________________________________________________
Layer (type)                 Output Shape              Param #   
=================================================================
input_1 (InputLayer)         [(None, 32, 32, 3)]       0         
_________________________________________________________________
conv2d (Conv2D)              (None, 32, 32, 128)       3584      
_________________________________________________________________
activation (Activation)      (None, 32, 32, 128)       0         
_________________________________________________________________
batch_normalization (BatchNo (None, 32, 32, 128)       512       
_________________________________________________________________
conv2d_1 (Conv2D)            (None, 32, 32, 128)       147584    
_________________________________________________________________
activation_1 (Activation)    (None, 32, 32, 128)       0         
_________________________________________________________________
batch_normalization_1 (Batch (None, 32, 32, 128)       512       
_________________________________________________________________
max_pooling2d (MaxPooling2D) (None, 16, 16, 128)       0         
_________________________________________________________________
conv2d_2 (Conv2D)            (None, 16, 16, 24)        76824     
_________________________________________________________________
activation_2 (Activation)    (None, 16, 16, 24)        0         
_________________________________________________________________
batch_normalization_2 (Batch (None, 16, 16, 24)        96        
_________________________________________________________________
conv2d_3 (Conv2D)            (None, 16, 16, 24)        14424     
_________________________________________________________________
activation_3 (Activation)    (None, 16, 16, 24)        0         
_________________________________________________________________
batch_normalization_3 (Batch (None, 16, 16, 24)        96        
_________________________________________________________________
max_pooling2d_1 (MaxPooling2 (None, 8, 8, 24)          0         
_________________________________________________________________
conv2d_4 (Conv2D)            (None, 8, 8, 24)          14424     
_________________________________________________________________
activation_4 (Activation)    (None, 8, 8, 24)          0         
_________________________________________________________________
batch_normalization_4 (Batch (None, 8, 8, 24)          96        
_________________________________________________________________
max_pooling2d_2 (MaxPooling2 (None, 4, 4, 24)          0         
_________________________________________________________________
conv2d_5 (Conv2D)            (None, 4, 4, 64)          38464     
_________________________________________________________________
activation_5 (Activation)    (None, 4, 4, 64)          0         
_________________________________________________________________
batch_normalization_5 (Batch (None, 4, 4, 64)          256       
_________________________________________________________________
max_pooling2d_3 (MaxPooling2 (None, 2, 2, 64)          0         
_________________________________________________________________
conv2d_6 (Conv2D)            (None, 2, 2, 36)          57636     
_________________________________________________________________
activation_6 (Activation)    (None, 2, 2, 36)          0         
_________________________________________________________________
batch_normalization_6 (Batch (None, 2, 2, 36)          144       
_________________________________________________________________
conv2d_7 (Conv2D)            (None, 2, 2, 36)          32436     
_________________________________________________________________
activation_7 (Activation)    (None, 2, 2, 36)          0         
_________________________________________________________________
batch_normalization_7 (Batch (None, 2, 2, 36)          144       
_________________________________________________________________
flatten (Flatten)            (None, 144)               0         
_________________________________________________________________
dense (Dense)                (None, 512)               74240     
_________________________________________________________________
activation_8 (Activation)    (None, 512)               0         
_________________________________________________________________
dense_1 (Dense)              (None, 8192)              4202496   
_________________________________________________________________
activation_9 (Activation)    (None, 8192)              0         
_________________________________________________________________
dense_2 (Dense)              (None, 10)                81930     
_________________________________________________________________
activation_10 (Activation)   (None, 10)                0         
=================================================================
Total params: 4,745,898
Trainable params: 4,744,970
Non-trainable params: 928
_________________________________________________________________
Epoch 1/10
1562/1562 - 15s - loss: 1.5526 - accuracy: 0.4347 - val_loss: 1.4274 - val_accuracy: 0.5252
Epoch 2/10
1562/1562 - 15s - loss: 1.1003 - accuracy: 0.6096 - val_loss: 1.0063 - val_accuracy: 0.6615
…
#058 (056, 0.187):: #Pareto: 7, 
New Contested Point and Value: 
[array([2, 2, 1, 1, 2, 5]), [128.0, 3.0, 24.0, 5.0, 24.0, 5.0, 64.0, 5.0, 36.0, 5.0, 512.0, 8192.0]] [-20.999997854232788, -443.6206970214844, -73.23566436767578]
Model: "functional_1"
_________________________________________________________________
Layer (type)                 Output Shape              Param #   
=================================================================
input_1 (InputLayer)         [(None, 32, 32, 3)]       0         
_________________________________________________________________
conv2d (Conv2D)              (None, 32, 32, 36)        1008      
_________________________________________________________________
activation (Activation)      (None, 32, 32, 36)        0         
_________________________________________________________________
batch_normalization (BatchNo (None, 32, 32, 36)        144       
_________________________________________________________________
max_pooling2d (MaxPooling2D) (None, 16, 16, 36)        0         
_________________________________________________________________
conv2d_1 (Conv2D)            (None, 16, 16, 64)        20800     
_________________________________________________________________
activation_1 (Activation)    (None, 16, 16, 64)        0         
_________________________________________________________________
batch_normalization_1 (Batch (None, 16, 16, 64)        256       
_________________________________________________________________
max_pooling2d_1 (MaxPooling2 (None, 8, 8, 64)          0         
_________________________________________________________________
conv2d_2 (Conv2D)            (None, 8, 8, 36)          57636     
_________________________________________________________________
activation_2 (Activation)    (None, 8, 8, 36)          0         
_________________________________________________________________
batch_normalization_2 (Batch (None, 8, 8, 36)          144       
_________________________________________________________________
max_pooling2d_2 (MaxPooling2 (None, 4, 4, 36)          0         
_________________________________________________________________
conv2d_3 (Conv2D)            (None, 4, 4, 96)          169440    
_________________________________________________________________
activation_3 (Activation)    (None, 4, 4, 96)          0         
_________________________________________________________________
batch_normalization_3 (Batch (None, 4, 4, 96)          384       
_________________________________________________________________
conv2d_4 (Conv2D)            (None, 4, 4, 96)          451680    
_________________________________________________________________
activation_4 (Activation)    (None, 4, 4, 96)          0         
_________________________________________________________________
batch_normalization_4 (Batch (None, 4, 4, 96)          384       
_________________________________________________________________
conv2d_5 (Conv2D)            (None, 4, 4, 96)          230496    
_________________________________________________________________
activation_5 (Activation)    (None, 4, 4, 96)          0         
_________________________________________________________________
batch_normalization_5 (Batch (None, 4, 4, 96)          384       
_________________________________________________________________
conv2d_6 (Conv2D)            (None, 4, 4, 96)          230496    
_________________________________________________________________
activation_6 (Activation)    (None, 4, 4, 96)          0         
_________________________________________________________________
batch_normalization_6 (Batch (None, 4, 4, 96)          384       
_________________________________________________________________
max_pooling2d_3 (MaxPooling2 (None, 2, 2, 96)          0         
_________________________________________________________________
flatten (Flatten)            (None, 384)               0         
_________________________________________________________________
dense (Dense)                (None, 256)               98560     
_________________________________________________________________
activation_7 (Activation)    (None, 256)               0         
_________________________________________________________________
dense_1 (Dense)              (None, 8192)              2105344   
_________________________________________________________________
activation_8 (Activation)    (None, 8192)              0         
_________________________________________________________________
dense_2 (Dense)              (None, 10)                81930     
_________________________________________________________________
activation_9 (Activation)    (None, 10)                0         
=================================================================
Total params: 3,449,470
Trainable params: 3,448,430
Non-trainable params: 1,040
_________________________________________________________________
Epoch 1/10
1562/1562 - 16s - loss: 2.3377 - accuracy: 0.1001 - val_loss: 2.3034 - val_accuracy: 0.1000
Epoch 2/10
1562/1562 - 16s - loss: 2.3034 - accuracy: 0.0995 - val_loss: 2.3029 - val_accuracy: 0.1000
…
#059 (057, 0.190):: #Pareto: 7, 
New Contested Point and Value: 
[array([1, 1, 1, 2, 2, 4]), [36.0, 3.0, 64.0, 3.0, 36.0, 5.0, 96.0, 7.0, 96.0, 5.0, 256.0, 8192.0]] [-89.99999985098839, -343.9801025390625, -59.70635223388672]
Model: "functional_1"
_________________________________________________________________
Layer (type)                 Output Shape              Param #   
=================================================================
input_1 (InputLayer)         [(None, 32, 32, 3)]       0         
_________________________________________________________________
conv2d (Conv2D)              (None, 32, 32, 36)        1008      
_________________________________________________________________
activation (Activation)      (None, 32, 32, 36)        0         
_________________________________________________________________
batch_normalization (BatchNo (None, 32, 32, 36)        144       
_________________________________________________________________
conv2d_1 (Conv2D)            (None, 32, 32, 36)        11700     
_________________________________________________________________
activation_1 (Activation)    (None, 32, 32, 36)        0         
_________________________________________________________________
batch_normalization_1 (Batch (None, 32, 32, 36)        144       
_________________________________________________________________
max_pooling2d (MaxPooling2D) (None, 16, 16, 36)        0         
_________________________________________________________________
conv2d_2 (Conv2D)            (None, 16, 16, 256)       83200     
_________________________________________________________________
activation_2 (Activation)    (None, 16, 16, 256)       0         
_________________________________________________________________
batch_normalization_2 (Batch (None, 16, 16, 256)       1024      
_________________________________________________________________
conv2d_3 (Conv2D)            (None, 16, 16, 256)       590080    
_________________________________________________________________
activation_3 (Activation)    (None, 16, 16, 256)       0         
_________________________________________________________________
batch_normalization_3 (Batch (None, 16, 16, 256)       1024      
_________________________________________________________________
max_pooling2d_1 (MaxPooling2 (None, 8, 8, 256)         0         
_________________________________________________________________
conv2d_4 (Conv2D)            (None, 8, 8, 128)         295040    
_________________________________________________________________
activation_4 (Activation)    (None, 8, 8, 128)         0         
_________________________________________________________________
batch_normalization_4 (Batch (None, 8, 8, 128)         512       
_________________________________________________________________
conv2d_5 (Conv2D)            (None, 8, 8, 128)         147584    
_________________________________________________________________
activation_5 (Activation)    (None, 8, 8, 128)         0         
_________________________________________________________________
batch_normalization_5 (Batch (None, 8, 8, 128)         512       
_________________________________________________________________
max_pooling2d_2 (MaxPooling2 (None, 4, 4, 128)         0         
_________________________________________________________________
conv2d_6 (Conv2D)            (None, 4, 4, 64)          73792     
_________________________________________________________________
activation_6 (Activation)    (None, 4, 4, 64)          0         
_________________________________________________________________
batch_normalization_6 (Batch (None, 4, 4, 64)          256       
_________________________________________________________________
conv2d_7 (Conv2D)            (None, 4, 4, 64)          36928     
_________________________________________________________________
activation_7 (Activation)    (None, 4, 4, 64)          0         
_________________________________________________________________
batch_normalization_7 (Batch (None, 4, 4, 64)          256       
_________________________________________________________________
conv2d_8 (Conv2D)            (None, 4, 4, 96)          153696    
_________________________________________________________________
activation_8 (Activation)    (None, 4, 4, 96)          0         
_________________________________________________________________
batch_normalization_8 (Batch (None, 4, 4, 96)          384       
_________________________________________________________________
max_pooling2d_3 (MaxPooling2 (None, 2, 2, 96)          0         
_________________________________________________________________
flatten (Flatten)            (None, 384)               0         
_________________________________________________________________
dense (Dense)                (None, 2048)              788480    
_________________________________________________________________
activation_9 (Activation)    (None, 2048)              0         
_________________________________________________________________
dense_1 (Dense)              (None, 4096)              8392704   
_________________________________________________________________
activation_10 (Activation)   (None, 4096)              0         
_________________________________________________________________
dense_2 (Dense)              (None, 10)                40970     
_________________________________________________________________
activation_11 (Activation)   (None, 10)                0         
=================================================================
Total params: 10,619,438
Trainable params: 10,617,310
Non-trainable params: 2,128
_________________________________________________________________
Epoch 1/10
1562/1562 - 17s - loss: 1.3969 - accuracy: 0.4992 - val_loss: 1.1367 - val_accuracy: 0.5983
Epoch 2/10
1562/1562 - 17s - loss: 0.9175 - accuracy: 0.6776 - val_loss: 1.0202 - val_accuracy: 0.6497
…
#060 (058, 0.193):: #Pareto: 7, 
New Contested Point and Value: 
[array([2, 2, 2, 2, 1, 4]), [36.0, 3.0, 256.0, 3.0, 128.0, 3.0, 64.0, 3.0, 96.0, 5.0, 2048.0, 4096.0]] [-17.489999532699585, -580.3932495117188, -93.84334564208984]
Model: "functional_1"
_________________________________________________________________
Layer (type)                 Output Shape              Param #   
=================================================================
input_1 (InputLayer)         [(None, 32, 32, 3)]       0         
_________________________________________________________________
conv2d (Conv2D)              (None, 32, 32, 128)       3584      
_________________________________________________________________
activation (Activation)      (None, 32, 32, 128)       0         
_________________________________________________________________
batch_normalization (BatchNo (None, 32, 32, 128)       512       
_________________________________________________________________
max_pooling2d (MaxPooling2D) (None, 16, 16, 128)       0         
_________________________________________________________________
conv2d_1 (Conv2D)            (None, 16, 16, 64)        73792     
_________________________________________________________________
activation_1 (Activation)    (None, 16, 16, 64)        0         
_________________________________________________________________
batch_normalization_1 (Batch (None, 16, 16, 64)        256       
_________________________________________________________________
conv2d_2 (Conv2D)            (None, 16, 16, 36)        20772     
_________________________________________________________________
activation_2 (Activation)    (None, 16, 16, 36)        0         
_________________________________________________________________
batch_normalization_2 (Batch (None, 16, 16, 36)        144       
_________________________________________________________________
max_pooling2d_1 (MaxPooling2 (None, 8, 8, 36)          0         
_________________________________________________________________
conv2d_3 (Conv2D)            (None, 8, 8, 96)          169440    
_________________________________________________________________
activation_3 (Activation)    (None, 8, 8, 96)          0         
_________________________________________________________________
batch_normalization_3 (Batch (None, 8, 8, 96)          384       
_________________________________________________________________
max_pooling2d_2 (MaxPooling2 (None, 4, 4, 96)          0         
_________________________________________________________________
conv2d_4 (Conv2D)            (None, 4, 4, 36)          31140     
_________________________________________________________________
activation_4 (Activation)    (None, 4, 4, 36)          0         
_________________________________________________________________
batch_normalization_4 (Batch (None, 4, 4, 36)          144       
_________________________________________________________________
max_pooling2d_3 (MaxPooling2 (None, 2, 2, 36)          0         
_________________________________________________________________
flatten (Flatten)            (None, 144)               0         
_________________________________________________________________
dense (Dense)                (None, 256)               37120     
_________________________________________________________________
activation_5 (Activation)    (None, 256)               0         
_________________________________________________________________
dense_1 (Dense)              (None, 8192)              2105344   
_________________________________________________________________
activation_6 (Activation)    (None, 8192)              0         
_________________________________________________________________
dense_2 (Dense)              (None, 10)                81930     
_________________________________________________________________
activation_7 (Activation)    (None, 10)                0         
=================================================================
Total params: 2,524,562
Trainable params: 2,523,842
Non-trainable params: 720
_________________________________________________________________
Epoch 1/10
1562/1562 - 15s - loss: 1.7629 - accuracy: 0.3515 - val_loss: 1.3780 - val_accuracy: 0.5075
Epoch 2/10
1562/1562 - 15s - loss: 1.2098 - accuracy: 0.5648 - val_loss: 1.0827 - val_accuracy: 0.6199
…
#061 (059, 0.197):: #Pareto: 7, 
New Contested Point and Value: 
[array([1, 1, 1, 1, 1, 2]), [128.0, 3.0, 64.0, 3.0, 36.0, 3.0, 96.0, 7.0, 36.0, 3.0, 256.0, 8192.0]] [-23.84999990463257, -327.95501708984375, -53.526641845703125]
Model: "functional_1"
_________________________________________________________________
Layer (type)                 Output Shape              Param #   
=================================================================
input_1 (InputLayer)         [(None, 32, 32, 3)]       0         
_________________________________________________________________
conv2d (Conv2D)              (None, 32, 32, 64)        4864      
_________________________________________________________________
activation (Activation)      (None, 32, 32, 64)        0         
_________________________________________________________________
batch_normalization (BatchNo (None, 32, 32, 64)        256       
_________________________________________________________________
conv2d_1 (Conv2D)            (None, 32, 32, 96)        55392     
_________________________________________________________________
activation_1 (Activation)    (None, 32, 32, 96)        0         
_________________________________________________________________
batch_normalization_1 (Batch (None, 32, 32, 96)        384       
_________________________________________________________________
max_pooling2d (MaxPooling2D) (None, 16, 16, 96)        0         
_________________________________________________________________
conv2d_2 (Conv2D)            (None, 16, 16, 64)        55360     
_________________________________________________________________
activation_2 (Activation)    (None, 16, 16, 64)        0         
_________________________________________________________________
batch_normalization_2 (Batch (None, 16, 16, 64)        256       
_________________________________________________________________
conv2d_3 (Conv2D)            (None, 16, 16, 64)        36928     
_________________________________________________________________
activation_3 (Activation)    (None, 16, 16, 64)        0         
_________________________________________________________________
batch_normalization_3 (Batch (None, 16, 16, 64)        256       
_________________________________________________________________
max_pooling2d_1 (MaxPooling2 (None, 8, 8, 64)          0         
_________________________________________________________________
conv2d_4 (Conv2D)            (None, 8, 8, 36)          57636     
_________________________________________________________________
activation_4 (Activation)    (None, 8, 8, 36)          0         
_________________________________________________________________
batch_normalization_4 (Batch (None, 8, 8, 36)          144       
_________________________________________________________________
max_pooling2d_2 (MaxPooling2 (None, 4, 4, 36)          0         
_________________________________________________________________
conv2d_5 (Conv2D)            (None, 4, 4, 64)          20800     
_________________________________________________________________
activation_5 (Activation)    (None, 4, 4, 64)          0         
_________________________________________________________________
batch_normalization_5 (Batch (None, 4, 4, 64)          256       
_________________________________________________________________
max_pooling2d_3 (MaxPooling2 (None, 2, 2, 64)          0         
_________________________________________________________________
flatten (Flatten)            (None, 256)               0         
_________________________________________________________________
dense (Dense)                (None, 4096)              1052672   
_________________________________________________________________
activation_6 (Activation)    (None, 4096)              0         
_________________________________________________________________
dense_1 (Dense)              (None, 1024)              4195328   
_________________________________________________________________
activation_7 (Activation)    (None, 1024)              0         
_________________________________________________________________
dense_2 (Dense)              (None, 10)                10250     
_________________________________________________________________
activation_8 (Activation)    (None, 10)                0         
=================================================================
Total params: 5,490,782
Trainable params: 5,490,006
Non-trainable params: 776
_________________________________________________________________
Epoch 1/10
1562/1562 - 15s - loss: 1.3505 - accuracy: 0.5108 - val_loss: 1.2561 - val_accuracy: 0.5596
Epoch 2/10
1562/1562 - 15s - loss: 0.9543 - accuracy: 0.6625 - val_loss: 1.0334 - val_accuracy: 0.6468
…
